Reinforcement 2/last_brain.pth (torch_old, 25155 bytes, 18 tensors)

fc1.weight f4 [30, 5]
0.57394654 0.21748593 0.022780882 0.22507669 0.22874154 0.11582852 -0.0921793 0.14722548
0.26231793 -0.5813526 -0.1420642 0.11569526 0.28064588 1.2519451 -1.4472717 -0.0048635257
-0.2682567 0.23757052 -0.6169756 0.6792962 0.26134112 -0.77714837 0.93410903 0.24866486
0.43976587 -0.109169506 0.109359294 0.10031364 -1.0628074 0.7010699 -0.3719414 -0.15996999
0.7100977 -1.1702312 1.3892232 -0.44323325 0.34459674 0.8952008 -0.34859207 0.015304976
-1.90648 -0.4076475 -1.5388689 -0.923307 0.9799257 0.8357197 0.46033564 -3.0373783
-0.56741995 0.34437227 -0.1266135 -0.005304038 0.13822961 0.9344979 -0.80949694 0.34273428
-0.6714811 0.28468612 0.5883908 -0.11146162 -0.029402385 0.40813613 0.21235433 -0.035934325
-0.04953372 0.10389088 0.33131775 0.46781918 -0.8461548 0.45251235 0.995069 0.19372696
-0.4607275 -0.4663545 0.9143065 -0.008818521 0.03126576 -0.023408031 -0.5310953 -0.09572626
-0.60076255 0.013161672 0.49127123 0.6583507 -0.98312813 0.041285455 0.021559978 1.2056004
0.7777641 -0.18721405 -0.16683702 0.6678662 0.22170633 -0.8267418 0.72828615 0.33071747
0.11374125 -0.31828633 -1.3519547 1.1437559 0.7879717 0.06021221 0.81070954 -0.38903514
-0.29001644 0.9879442 -0.06822037 -0.03370349 -0.39572418 0.4627936 0.8269662 0.0505913
0.7556048 -0.51977104 0.7837771 -0.13814212 0.061846945 0.46969828 -1.414814 1.4135706
1.6323544 -0.31948516 0.37926066 0.8511549 -0.67902553 -0.55947965 0.02887782 0.55809456
1.2319143 -1.2930529 1.0857643 -0.057250414 -1.2274939 0.4162697 0.19047256 -0.27165252
-0.048624188 -0.22471243 0.39466774 0.35732263 1.0025434 0.0017657276 -0.89098597 -0.66263044
0.55929816 0.09841396 0.01003871 -0.008915381 -0.24662443 0.01324127
00000000: 29ee 123f a2b4 5e3e f99e ba3c 817a 663e
00000010: 393b 6a3e 8137 ed3d 80c8 bcbd 47c2 163e
00000020: 894e 863e 86d3 14bf 4779 11be a3f1 ec3d
00000030: d1b0 8f3e bd3f a03f 3340 b9bf 365e 9fbb
00000040: f158 89be b045 733e 1df2 1dbf 5be6 2d3f
00000050: 81ce 853e 32f3 46bf c521 6f3f 00a2 7e3e
00000060: fe28 e13e 4394 dfbd c4f7 df3d 3d71 cd3d
00000070: 130a 88bf 5179 333f 1a6f bebe 2ccf 23be
00000080: f6c8 353f 23ca 95bf 11d2 b13f 78ef e2be
00000090: fc6e b03e e12b 653f a97a b2be b9c1 7a3c
000000a0: 8907 f4bf 2cb7 d0be a8f9 c4bf d95d 6cbf
000000b0: 69dc 7a3f baf1 553f 1db1 eb3e 6864 42c0
000000c0: 6f42 11bf 9051 b03e f8a6 01be 7fcd adbb
000000d0: 108c 0d3e 413b 6f3f 313b 4fbf de7a af3e
000000e0: 2fe6 2bbf 61c2 913e c8a0 163f fd45 e4bd
000000f0: 45dd f0bc 38f7 d03e 6a73 593e df2f 13bd
00000100: dfe3 4abd bec4 d43d 7ba2 a93e ff85 ef3e
00000110: 9a9d 58bf b3af e73e d8bc 7e3f 5c60 463e
00000120: 7ae4 ebbe 04c6 eebe fe0f 6a3f 8f7b 10bc
00000130: 8710 003d 33c2 bfbc ddf5 07bf 210c c4bd
00000140: 93cb 19bf 0ea4 573c e787 fb3e ac89 283f
00000150: 49ae 7bbf f01a 293d 8d9e b03c 1d51 9a3f
00000160: 8c1b 473f 0ab5 3fbe 53d7 2abe 47f9 2a3f
00000170: fc06 633e 5aa5 53bf f670 3a3f cd53 a93e
00000180: 2cf1 e83d 6df6 a2be da0c adbf 9866 923f
00000190: 83b8 493f 14a1 763d a98a 4f3f 9d2f c7be
000001a0: 097d 94be e9e9 7c3f 1fb7 8bbd ac0c 0abd
000001b0: 5c9c cabe 48f3 ec3e 0fb4 533f d338 4f3d
000001c0: 516f 413f b70f 05bf 9ea5 483f 2175 0dbe
000001d0: 3953 7d3d 4b7c f03e a018 b5bf e2ef b43f
000001e0: fdf0 d03f 8f93 a3be 742e c23e 4ae5 593f
000001f0: 9ed4 2dbf 0f3a 0fbf 2e91 ec3c 49df 0e3f
00000200: 5eaf 9d3f c282 a5bf 53fa 8a3f 697f 6abd
00000210: 851e 9dbf 4d21 d53e 3d0b 433e 0a16 8bbe
00000220: 282a 47bd 041b 66be e411 ca3e fef2 b63e
00000230: 5853 803f fd6f e73a a817 64bf 26a2 29bf
00000240: 2a2e 0f3f 428d c93d 6779 243c d111 12bc
00000250: 1d8b 7cbe e9f1 583c

fc1.bias f4 [30]
-0.16321963 0.28131342 -0.9288856 1.53088 -0.47298267 0.9585263 -0.7088581 0.3797019
0.15324752 0.73717654 0.75562215 0.84402007 -0.17201222 0.50482553 0.9454968 0.4649437
0.38703135 -0.9957138 -1.0909051 0.9976547 -0.41169298 0.18219163 -0.5615027 1.0395219
-1.110395 -1.3126676 1.0251255 -0.2012546 0.9452524 0.9358294
00000000: 0c23 27be 5008 903e 72cb 6dbf e0f3 c33f
00000010: c92a f2be fb61 753f b977 35bf 4a68 c23e
00000020: ebec 1c3e 9ab7 3c3f 7470 413f b311 583f
00000030: f923 30be 3f3c 013f 140c 723f 1a0d ee3e
00000040: f928 c63e 19e7 7ebf c7a2 8bbf 4c66 7f3f
00000050: 6cc9 d2be 7190 3a3e a4be 0fbf 0e0f 853f
00000060: 6c21 8ebf 7e05 a8bf 5037 833f b015 4ebe
00000070: 10fc 713f 8492 6f3f

fc2.weight f4 [50, 30]
0.29770687 0.30573148 -0.20536858 0.5076203 -0.6623658 0.32706067 -0.618438 0.054380782
0.29426572 -1.0415349 0.5258266 0.79749286 -0.030283723 0.14922553 -0.052669 0.05291998
-1.1312853 0.90876776 -0.042015057 0.9719829 0.3471874 0.2257477 0.16193578 0.9100887
-0.6746113 -0.6995842 0.46924132 -0.016627893 0.16341884 0.12945795 0.22831485 0.098926455
0.2378585 0.7570006 -1.0129724 0.025908295 -0.67762387 -0.06265819 0.15514602 -0.563581
0.62800646 -0.09577176 0.07439336 0.1832176 -0.23234314 0.008236977 -0.5185885 0.6174792
0.42525026 0.32479843 0.40971598 0.3500914 0.22732309 0.07788685 -0.8240872 0.061496027
0.8358526 0.16282818 -0.19199362 0.34137443 0.04674452 0.2335527 0.5046623 0.47008055
-0.48991078 0.18595368 -0.17119233 0.44395107 0.2007443 -0.7737455 0.32582477 0.47383198
0.10655604 0.36002362 -0.026531192 0.2769472 0.07987604 0.96040565 -0.3864991 -0.38813406
0.61373115 0.6156229 0.65309566 -0.15359613 -0.1610995 0.07751603 0.60488904 -0.0123158395
-0.12968926 0.15261672 -0.22474755 -0.055199124 0.01034753 -0.07099588 0.03671506 -0.07402533
-0.18466297 -0.20748615 -0.120501615 0.023619225 -0.121998705 -0.04734412 -0.094351225 -0.011422386
-0.09165614 -0.18831596 -0.174449 -0.13836506 -0.055623572 -0.05384063 0.057199154 -0.14081801
-0.106418446 0.11832076 -0.008793786 0.04960154 -0.08061955 -0.039969116 0.105265185 0.041231755
-0.22293244 0.017238857 -0.17483239 -0.11933094 0.086060315 0.1092068 -0.22207355 0.06592965
0.27052322 0.029693317 -0.14341229 -0.15937032 0.044572208 -0.105210744 0.07157259 0.08233469
-0.15064006 -0.15144917 0.06378854 -0.16557828 -0.12803328 0.0058314074 0.056349024 0.047904603
0.13500957 -0.099117965 -0.03531403 -0.16431922 -0.047811143 -0.14031807 0.15485197 -0.11953535
-0.41752046 -0.33188552 0.86314774 -0.1845275 0.59903085 -0.095637605 -0.23732021 0.29959303
-0.4791664 -0.5799572 0.5082651 0.0974528 0.46197367 0.050188925 -0.21027324 -0.5810771
0.519355 0.31590456 -0.3460562 -0.092284024 -0.053390034 0.0753035 1.5264388 0.42926985
0.027684143 -0.11239001 0.5572604 0.58477086 0.31555843 -0.054968696 0.18791255 0.6218533
-0.7804608 -0.1477459 -0.919256 0.05452818 0.5515217 -0.2837862 0.12775014 0.14801091
0.31029627 0.09137857 -0.078132614 0.22855774 -0.82264286 0.6657104 0.19663171 0.017750379
0.3154124 0.19932194 0.262849 0.07839686 -0.27983922 0.021211924 0.677392 0.04585989
0.10440162 0.16623835 0.08875869 0.005681529 0.04163354 0.03912761 0.1474089 -0.12957442
-0.04094623 -0.09832374 -0.11080882 0.030721936 -0.0078853825 -0.0387874 -0.001632087 -0.0024149131
-0.17271324 -0.15625337 -0.0932042 0.05101699 0.08539632 0.02287341 -0.20938416 -0.049555838
-0.1127657 -0.14382848 -0.14506578 -0.17997676 -0.26069045 -0.059675924 -0.10258304 -0.28655684
0.14933263 -0.44778606 -0.52942425 -0.7353573 0.6374841 -0.42556536 0.053935774 -0.2092016
-2.0290778 0.79974 -0.0674008 0.04688254 -0.01220279 -0.17334564 -0.2471213 -0.26193503
00000000: 096d 983e d688 9c3e 244c 52be 67f3 013f
00000010: ce90 29bf 7f74 a73e f451 1ebf 62be 5e3d
00000020: ffa9 963e 0451 85bf 929c 063f 7e28 4c3f
00000030: 9215 f8bc 94ce 183e 73bb 57bd 9fc2 583d
00000040: f5cd 90bf 01a5 683f fb17 2cbd dfd3 783f
00000050: 8cc2 b13e 682a 673e 7ed2 253e 93fb 683f
00000060: 53b3 2cbf f317 33bf 6640 f03e 3837 88bc
00000070: 4557 273e a090 043e 5ecb 693e f499 ca3d
00000080: 2e91 733e cbca 413f 14a9 81bf a23d d43c
00000090: c278 2dbf f052 80bd 99de 1e3e d846 10bf
000000a0: 08c5 203f fc23 c4bd 8c5b 983d 659d 3b3e
000000b0: 5ceb 6dbe 63f4 063c 37c2 04bf 1e13 1e3f
000000c0: 67ba d93e fb4b a63e 4bc6 d13e 2e3f b33e
000000d0: 62c7 683e 2483 9f3d 61f7 52bf 42e3 7b3d
000000e0: 70fa 553f 6ebc 263e fa99 44be a1c8 ae3e
000000f0: 2f77 3f3d 7028 6f3e 8c31 013f 66ae f03e
00000100: 96d5 fabe a46a 3e3e 0b4d 2fbe 8e4d e33e
00000110: ea8f 4d3e 2f14 46bf 81d2 a63e 1b9a f23e
00000120: 0e3a da3d 0455 b83e f157 d9bc 06cc 8d3e
00000130: 0d96 a33d 25dd 753f 36e3 c5be 82b9 c6be
00000140: 7c1d 1d3f 7699 1d3f 4731 273f 4e48 1dbe
00000150: 44f7 24be b9c0 9e3d 02da 1a3f 60c8 49bc
00000160: 43cd 04be 8f47 1c3e 3924 66be 7a18 62bd
00000170: b088 293c 4a66 91bd 8862 163d 989a 97bd
00000180: 4a18 3dbe 4077 54be 8dc9 f6bd 1b7d c13c
00000190: 75da f9bd e8eb 41bd 373b c1bd f624 3bbc
000001a0: 37b6 bbbd e6d5 40be c2a2 32be 92af 0dbe
000001b0: 8bd5 63bd fe87 5cbd a949 6a3d 9932 10be
000001c0: eaf1 d9bd 2852 f23d d013 10bc fc2a 4b3d
000001d0: dd1b a5bd a8b6 23bd 4695 d73d a1e2 283d
000001e0: 6748 64be 8138 8d3c 4307 33be c863 f4bd
000001f0: 6440 b03d d1a7 df3d 4067 63be 2006 873d
00000200: 0582 8a3e 663f f33c acda 12be f931 23be
00000210: 5991 363d bb78 d7bd a694 923d 179f a83d
00000220: 6341 1abe 7e15 1bbe 91a3 823d 5a8d 29be
00000230: 281b 03be 6415 bf3b 3cce 663d 9e37 443d
00000240: f33f 0a3e 5cfe cabd 72a5 10bd 4c43 28be
00000250: 9ed5 43bd 8aaf 0fbe 8491 1e3e f3ce f4bd
00000260: 3ec5 d5be e6ec a9be 40f7 5c3f c7f4 3cbe
00000270: 165a 193f a6dd c3bd 1204 73be 4264 993e
00000280: 4c55 f5be 1378 14bf a91d 023f 5595 c73d
00000290: d087 ec3e e792 4d3d de51 57be 78c1 14bf
000002a0: 73f4 043f 3ebe a13e 472e b1be 68ff bcbd
000002b0: 82af 5abd b938 9a3d 5962 c33f 42c9 db3e
000002c0: dbc9 e23c bc2c e6bd 9ea8 0e3f 8bb3 153f
000002d0: e090 a13e db26 61bd 266c 403e c731 1f3f
000002e0: 47cc 47bf b44a 17be 5c54 6bbf f158 5f3d
000002f0: 8730 0d3f 6d4c 91be efd0 023e 2c90 173e
00000300: 27df 9e3e b024 bb3d fe03 a0bd 0a0b 6a3e
00000310: b998 52bf ff6b 2a3f d359 493e 3e69 913c
00000320: bc7d a13e 0d1b 4c3e 2594 863e 888e a03d
00000330: 1647 8fbe a1c4 ad3c 9069 2d3f 94d7 3b3d
00000340: 84d0 d53d 633a 2a3e 1ec7 b53d 1f2c ba3b
00000350: ee87 2a3d 4644 203d 5cf2 163e 28af 04be
00000360: 3cb7 27bd f55d c9bd bcef e2bd 92ac fb3c
00000370: b131 01bc 89df 1ebd c1eb d5ba 8543 1ebb
00000380: bddb 30be e200 20be d8e1 bebd 31f7 503d
00000390: 44e4 ae3d 0461 bb3c cd68 56be 10fb 4abd
000003a0: b4f1 e6bd c647 13be 208c 14be d44b 38be
000003b0: 3879 85be be6e 74bd 0f17 d2bd 94b7 92be
000003c0: a7ea 183e 3744 e5be 5988 07bf 6040 3cbf
000003d0: 2832 233f b4e3 d9be c2eb 5c3d f238 56be
000003e0: 69dc 01c0 c3bb 4c3f 6e09 8abd e807 403d
000003f0: 36ee 47bc 8581 31be 5e0d 7dbe 591c 86be

fc2.bias f4 [50]
0.78167975 0.83159035 0.24461812 -0.037671823 -0.29237753 -0.17238945 0.4207708 -0.014257564
-0.65821785 0.90031135 0.40532145 0.60641503 0.16518933 0.70513463 0.7988061 0.61283594
0.31065065 0.49311158 -0.02476306 0.7035233 0.62585217 0.693331 0.6546313 0.5816428
-0.16918471 0.47389403 -0.5327832 0.34213814 0.38347167 0.38155025 -0.21194905 -0.118106745
0.53754574 0.10025073 0.045289144 -0.07166499 -0.17236844 -0.05728453 0.7792156 0.47952986
0.32744366 -0.1320538 -0.045097798 0.20681839 0.58840585 0.088658184 0.24784696 0.5207442
0.08938692 0.62945294
00000000: 2a1c 483f 1be3 543f 2c7d 7a3e c54d 1abd
00000010: 82b2 95be dc86 30be 456f d73e 8f98 69bc
00000020: f780 28bf ce7a 663f 4b86 cf3e 043e 1b3f
00000030: 6427 293e b483 343f 8e7e 4c3f d1e2 1c3f
00000040: 9a0d 9f3e 1f79 fc3e e7db cabc 1a1a 343f
00000050: d937 203f 247e 313f eb95 273f 8be6 143f
00000060: c23e 2dbe 3da2 f23e 7b64 08bf bb2c af3e
00000070: 6656 c43e 8e5a c33e 2c09 59be f3e1 f1bd
00000080: 999c 093f 4150 cd3d 1c81 393d 18c5 92bd
00000090: 5a81 30be 2fa3 6abd ac7a 473f f084 f53e
000000a0: b2a6 a73e 1d39 07be 78b8 38bd 33c8 533e
000000b0: c4a1 163f 6c92 b53d 98cb 7d3e 7e4f 053f
000000c0: 7d10 b73d d423 213f

fc3.weight f4 [3, 50]
-0.36535585 -0.6858605 -0.17675096 0.044832956 0.023054345 0.895919 -0.16286997 0.08637673
0.40958536 1.7528294 -0.64466476 -0.669521 0.31336147 -0.18660894 -0.5682731 -0.8406762
-1.5092486 -0.6044718 0.018137256 -0.24627386 -0.38727883 -0.6007218 -0.18377411 0.89930886
-0.07604193 -0.09713549 0.94474626 -0.2140702 -1.8756541 0.8923551 -0.10812725 0.101639055
-0.19900747 -0.013552164 -0.03817642 0.09779293 -0.060441434 0.08534841 -0.36439472 -0.37305915
-0.51608574 -0.009352911 -0.053793028 0.7685537 2.1947587 -0.030523831 -0.15412845 -0.1733214
-0.48377985 -0.36025655 -0.57682747 -0.3237527 -0.018464798 0.16092488 0.10222634 0.88823736
-0.18402585 0.015635867 -0.10762768 1.585522 -1.7890421 -0.13571419 0.12337091 -0.4100891
-0.28432065 -0.6957844 -0.3775292 -0.35778603 0.10020198 -0.2473789 -0.23903556 -0.40611246
-0.2921272 0.42263797 -1.906429 -0.22999129 0.5017286 0.0021746848 -1.0631849 0.9791927
0.029409349 0.057465445 -0.81470597 0.056349564 0.043350033 0.13821945 -0.13050747 -0.0073397206
-0.3426231 -0.62985563 -0.41387078 0.021020114 0.09399097 0.47175184 1.8600764 -0.062282264
0.098609395 -0.19110414 -1.818538 -0.28013974 -0.8522455 -0.12372595 -0.6341881 -0.012811807
-0.12347431 0.79377705 -0.181302 0.034060102 0.06641122 1.7932111 -0.09345402 -1.4790614
1.2087306 0.05185872 -0.30108425 -0.79355615 -0.034659646 -1.7119503 -0.032670535 -0.2970363
-0.3835443 -1.3752078 -0.24208823 1.7555306 -0.23027004 -0.13704845 1.6406643 -0.57022935
-1.4023122 1.8567011 0.01575436 0.02371626 -0.19865276 0.024945533 -0.052295595 -0.011452328
-0.028826684 0.032782577 -0.3192186 -0.10931892 -0.16922386 0.08116415 -0.07978524 1.1053838
2.4993074 -0.11068632 -0.24726178 -0.20416278 0.038461376 -0.36417297
00000000: ec0f bbbe 8e94 2fbf 34fe 34be c3a2 373d
00000010: 77dc bc3c f35a 653f 63c7 26be 48e6 b03d
00000020: 2cb5 d13e b75c e03f c008 25bf ba65 2bbf
00000030: ea70 a03e 6a16 3fbe 597a 11bf 8e36 57bf
00000040: 0f2f c1bf aabe 1abf 9594 943c 372f 7cbe
00000050: 6949 c6be e7c8 19bf 482f 3cbe 1b39 663f
00000060: dfbb 9bbd f9ee c6bd e4da 713f 3835 5bbe
00000070: 6f15 f0bf 6271 643f d271 ddbd 2328 d03d
00000080: 9dc8 4bbe e509 5ebc e15e 1cbd a947 c83d
00000090: 7091 77bd 26cb ae3d f291 babe 9c01 bfbe
000000a0: 321e 04bf f43c 19bc 1456 5cbd efbf 443f
000000b0: ed76 0c40 1d0d fabc d9d3 1dbe 2a7b 31be
000000c0: feb1 f7be 8c73 b8be f7aa 13bf eac2 a5be
000000d0: 7d43 97bc 7ec9 243e 0b5c d13d 8663 633f
000000e0: 4671 3cbe ca16 803c e76b dcbd 63f2 ca3f
000000f0: 55ff e4bf a9f8 0abe e3a9 fc3d 33f7 d1be
00000100: 7a92 91be ed1e 32bf 824b c1be bb2f b7be
00000110: b236 cd3d e550 7dbe bdc5 74be f9ed cfbe
00000120: b291 95be 0164 d83e de05 f4bf d682 6bbe
00000130: 4971 003f 2885 0e3b 7116 88bf 5fac 7a3f
00000140: e0eb f03c e360 6b3d 9290 50bf cdce 663d
00000150: ce8f 313d 6689 0d3e c0a3 05be 0a82 f0bb
00000160: 4c6c afbe 383e 21bf dfe6 d3be 6032 ac3c
00000170: 567e c03d 7589 f13e fc16 ee3f b01b 7fbd
00000180: b9f3 c93d ceb0 43be dac5 e8bf 7a6e 8fbe
00000190: c32c 5abf 0864 fdbd 275a 22bf 9de8 51bc
000001a0: 19e0 fcbd f934 4b3f 3ba7 39be 9b82 0b3d
000001b0: 9b02 883d f187 e53f d264 bfbd e251 bdbf
000001c0: afb7 9a3f cf69 543d b727 9abe 7f26 4bbf
000001d0: 46f7 0dbd 3021 dbbf 8ad1 05bd 2415 98be
000001e0: eb5f c4be cf06 b0bf fae5 77be 3ab5 e03f
000001f0: e9cb 6bbe 6e56 0cbe 4a01 d23f 8dfa 11bf
00000200: f77e b3bf 62a8 ed3f 4a0f 813c 9a48 c23c
00000210: a16b 4bbe 935a cc3c e833 56bd 8ca2 3bbc
00000220: f025 ecbc 0647 063d 9f70 a3be 99e2 dfbd
00000230: 0549 2dbe 6439 a63d 7266 a3bd 377d 8d3f
00000240: a7f4 1f40 82af e2bd 3132 7dbe 0c10 51be
00000250: ad89 1d3d e174 babe

fc3.bias f4 [3]
-0.8526007 -0.490093 -0.5455445
00000000: 0a44 5abf 78ed fabe cea8 0bbf

exp_avg f4 [30, 5]
-0.030574625 -0.04784222 -0.008310962 0.00941135 -0.00941135 0.024149895 0.022632 0.028630491
0.00026379456 -0.00026379456 -0.044538643 -0.012320416 -0.034378864 0.0011767306 -0.0011767306 -0.33743346
-0.33485696 -0.1814925 0.020278653 -0.020278653 0.39869976 0.33719057 0.2746694 -0.008040331
0.008040331 -0.014983442 -0.034559198 -0.0005485886 0.014745111 -0.014745111 0.16135208 0.20652944
0.055743985 -0.006127988 0.006127988 0.0262279 0.009229071 0.029588541 0.0030345027 -0.0030345027
0.0019530663 0.00655209 0.00031007035 -0.01546507 0.01546507 0.0007263422 0.062358614 0.0033157985
-0.019340515 0.019340515 -0.009813032 -0.0069556404 0.03580785 0.008936833 -0.008936833 -0.042666994
-0.004242912 0.03675664 -0.014830511 0.014830511 0.035314374 0.053958207 0.057080224 -0.0022123284
0.0022123284 0.014629047 -0.0008104788 0.02042561 0.013116929 -0.013116929 -0.008550504 -0.021138866
0.0020545137 0.024669569 -0.024669569 -0.006619454 -0.018759118 0.0011779445 0.011082478 -0.011082478
0.010612337 0.04778101 -0.048250437 -0.011052698 0.011052698 -0.1542821 -0.08746696 -0.16599676
0.024543475 -0.024543475 0.0036582435 0.023953144 0.04199264 -0.04575471 0.04575471 -0.10098461
-0.121030524 -0.09691086 -0.016710598 0.016710598 -0.09347607 -0.12722242 -0.027354151 0.005652497
-0.005652497 -0.17534265 -0.19523607 -0.14104775 0.015205409 -0.015205409 -0.12350877 -0.14998549
-0.096070066 0.0102653 -0.0102653 0.07566556 0.10907377 0.09376864 -0.01790848 0.01790848
0.38710052 0.33645415 0.2487812 -0.039944932 0.039944932 0.002785705 -0.024867326 -0.03436963
-0.015323062 0.015323062 0.024697054 0.11305024 0.026482759 0.031542987 -0.031542987 0.0
0.0 0.0 0.0 0.0 -0.031951226 -0.052634906 -0.033052366 0.018900812
-0.018900812 -0.034761917 -0.040670797 -0.021406822 0.014258193 -0.014258193
00000000: a377 fabc 34f6 43bd b32a 08bc 1032 1a3c
00000010: 1032 1abc 00d6 c53c be66 b93c 7e8a ea3c
00000020: e84d 8a39 e84d 8ab9 276e 36bd 92db 49bc
00000030: dad0 0cbd 873c 9a3a 873c 9aba 14c4 acbe
00000040: 5f72 abbe 2bd9 39be 6b1f a63c 6b1f a6bc
00000050: 6022 cc3e 3ea4 ac3e 78a1 8c3e 98bb 03bc
00000060: 98bb 033c 1c7d 75bc f28d 0dbd 28cf 0fba
00000070: 7a95 713c 7a95 71bc 7b39 253e 747c 533e
00000080: ce53 643d 4acd c8bb 4acd c83b e5db d63c
00000090: 8835 173c ab63 f23c 82de 463b 82de 46bb
000000a0: 08fe ff3a eab2 d63b f090 a239 3461 7dbc
000000b0: 3461 7d3c 0068 3e3a bf6b 7f3d de4d 593b
000000c0: 0070 9ebc 0070 9e3c d7c6 20bc 24ec e3bb
000000d0: 41ab 123d cb6b 123c cb6b 12bc 96c3 2ebd
000000e0: 2008 8bbb 218e 163d acfb 72bc acfb 723c
000000f0: cea5 103d 4803 5d3d f4cc 693d b6fc 10bb
00000100: b6fc 103b acae 6f3c 5076 54ba 9c53 a73c
00000110: 63e8 563c 63e8 56bc 6a17 0cbc 6a2b adbc
00000120: 05a5 063b d617 ca3c d617 cabc 01e8 d8bb
00000130: b9ac 99bc 4265 9a3a 4893 353c 4893 35bc
00000140: 5edf 2d3c 05b6 433d 40a2 45bd 6016 35bc
00000150: 6016 353c 20fc 1dbe e121 b3bd 0efb 29be
00000160: 660f c93c 660f c9bc 24bf 6f3b 6239 c43c
00000170: 7900 2c3d 4a69 3bbd 4a69 3b3d 05d1 cebd
00000180: dade f7bd 3379 c6bd aae4 88bc aae4 883c
00000190: 6270 bfbd 9846 02be d015 e0bc 9538 b93b
000001a0: 9538 b9bb 068d 33be f7eb 47be d26e 10be
000001b0: 1c20 793c 1c20 79bc 2af2 fcbd cc95 19be
000001c0: 62c0 c4bd ca2f 283c ca2f 28bc 8cf6 9a3d
000001d0: 1262 df3d c609 c03d ceb4 92bc ceb4 923c
000001e0: 0a32 c63e b843 ac3e 80c0 7e3e 4c9d 23bd
000001f0: 4c9d 233d 6090 363b 90b6 cbbc 2bc7 0cbd
00000200: 950d 7bbc 950d 7b3c 7a51 ca3c e286 e73d
00000210: 5ff2 d83c 3833 013d 3833 01bd 0000 0000
00000220: 0000 0000 0000 0000 0000 0000 0000 0000
00000230: 4adf 02bd b397 57bd eb61 07bd e0d5 9a3c
00000240: e0d5 9abc 8362 0ebd 6c96 26bd 5c5d afbc
00000250: 329b 693c 329b 69bc

exp_avg_sq f4 [30, 5]
0.030939603 0.05939608 0.020841168 0.0033869203 0.0033869203 0.0071712015 0.022312164 0.0071067982
0.00022094321 0.00022094321 0.06394473 0.18374945 0.04199009 0.0007399304 0.0007399304 0.2684191
0.24481577 0.38509536 0.0068367636 0.0068367636 0.65594685 0.54284686 0.842887 0.013808295
0.013808295 0.014882155 0.028862901 0.015654365 0.0028220834 0.0028220834 0.13126211 0.114465855
0.27434972 0.003517241 0.003517241 0.018645775 0.030750377 0.021292772 0.001720286 0.001720286
6.544107e-05 0.0028686407 0.00015439493 0.005124666 0.005124666 0.0823618 0.21167356 0.0013032501
0.0033315336 0.0033315336 0.05393146 0.2245453 0.07562138 0.0020164251 0.0020164251 0.12268806
0.094542176 0.2034691 0.0044815796 0.0044815796 0.018015034 0.03450748 0.017924463 0.005683339
0.005683339 0.013466221 0.039595805 0.014441803 0.0017151142 0.0017151142 0.021539833 0.027169857
0.020955095 0.0057728156 0.0057728156 0.0028045827 0.0050989445 0.0025853196 0.00078394444 0.00078394444
0.048655014 0.6110973 0.10159446 0.002463803 0.002463803 0.53923136 2.1600595 0.39007306
0.009410419 0.009410419 0.009404793 0.06278159 0.019888207 0.0120721655 0.0120721655 0.20882155
0.28302974 0.20965089 0.0032719509 0.0032719509 0.14504284 0.3132047 0.11052983 0.010834475
0.010834475 0.23771657 0.3634914 0.18180606 0.0046971254 0.0046971254 0.19566798 0.8465893
0.12492277 0.0048778835 0.0048778835 0.028000662 0.15138681 0.027508019 0.0018826559 0.0018826559
0.8662679 0.8225583 0.6086469 0.007069571 0.007069571 0.01996793 0.20549504 0.033733543
0.0046850275 0.0046850275 0.16859321 2.7062101 0.027916932 0.013005137 0.013005137 0.0
0.0 0.0 0.0 0.0 0.052200858 0.08052294 0.05210557 0.0031935242
0.0031935242 0.012121202 0.04516881 0.009740689 0.0015150151 0.0015150151
00000000: 0d75 fd3c 4e49 733d 19bb aa3c 18f7 5d3b
00000010: 18f7 5d3b 66fc ea3b 00c8 b63c 25e0 e83b
00000020: feac 6739 feac 6739 74f5 823d d128 3c3e
00000030: cdfd 2b3d e3f7 413a e3f7 413a 3a6e 893e
00000040: fcb0 7a3e 382b c53e ee06 e03b ee06 e03b
00000050: 22ec 273f 03f8 0a3f 71c7 573f 303c 623c
00000060: 303c 623c 48d4 733c e471 ec3c 953d 803c
00000070: b4f2 383b b4f2 383b 9369 063e 136d ea3d
00000080: 9177 8c3e 8381 663b 8381 663b 06bf 983c
00000090: 37e8 fb3c 2e6e ae3c 387b e13a 387b e13a
000000a0: 683d 8938 ceff 3b3b 13e5 2139 d0ec a73b
000000b0: d0ec a73b 4ead a83d f4c0 583e d1d1 aa3a
000000c0: dc55 5a3b dc55 5a3b 3ce7 5c3d 34ef 653e
000000d0: 62df 9a3d 0026 043b 0026 043b e143 fb3d
000000e0: 549f c13d 345a 503e 37da 923b 37da 923b
000000f0: 4494 933c b757 0d3d 53d6 923c 4e3b ba3b
00000100: 4e3b ba3b 6da1 5c3c 362f 223d 509d 6c3c
00000110: afcd e03a afcd e03a 4e74 b03c 5293 de3c
00000120: 05aa ab3c e329 bd3b e329 bd3b 17cd 373b
00000130: 0c15 a73b 776e 293b 9f81 4d3a 9f81 4d3a
00000140: 7b4a 473d df70 1c3f c210 d03d c177 213b
00000150: c177 213b 110b 0a3f 6a3e 0a40 a8b7 c73e
00000160: 282e 1a3c 282e 1a3c 9016 1a3c a293 803d
00000170: 98ec a23c 55ca 453c 55ca 453c 51d5 553e
00000180: 46e9 903e b9ae 563e 3a6e 563b 3a6e 563b
00000190: 1c86 143e 5e5c a03e 775d e23d 1583 313c
000001a0: 1583 313c f96b 733e 8b1b ba3e 5e2b 3a3e
000001b0: 58ea 993b 58ea 993b 305d 483e 14ba 583f
000001c0: 82d7 ff3d a7d6 9f3b a7d6 9f3b a561 e53c
000001d0: 2505 1b3e 7f58 e13c 73c3 f63a 73c3 f63a
000001e0: bcc3 5d3f 2e93 523f 49d0 1b3f dca7 e73b
000001f0: dca7 e73b c993 a33c 4b6d 523e 2f2c 0a3d
00000200: dc84 993b dc84 993b b3a3 2c3e 8c32 2d40
00000210: 0db2 e43c 8013 553c 8013 553c 0000 0000
00000220: 0000 0000 0000 0000 0000 0000 0000 0000
00000230: 91d0 553d 36e9 a43d a66c 553d 724a 513b
00000240: 724a 513b 0298 463c ee02 393d 6997 1f3c
00000250: 7993 c63a 7993 c63a

exp_avg f4 [30]
0.0019694297 -0.0061251954 -0.005461042 0.01198956 -0.009494218 0.0051579103 0.006545432 0.004728558
0.0001572594 0.037753753 0.009345742 0.05019475 0.019255172 0.029368285 -0.014812663 -0.014135208
0.008521111 -0.010251638 0.082937434 0.001210426 -0.0084972605 0.026260529 0.0095235305 0.009246821
0.01892789 -0.033242255 0.009221538 0.0 -0.04883261 -0.02302535
00000000: 8c11 013b ddb5 c8bb 8af2 b2bb dc6f 443c
00000010: a38d 1bbc b003 a93b 107b d63b 05f2 9a3b
00000020: 00e6 2439 aea3 1a3d e21e 193c 0399 4d3d
00000030: 06bd 9d3c c295 f03c d0b0 72bc 5c97 67bc
00000040: 219c 0b3c 7cf6 27bc 1adb a93d 28a7 9e3a
00000050: 1838 0bbc 5220 d73c 9508 1c3c fa7f 173c
00000060: aa0e 9b3c 0829 08bd ef15 173c 0000 0000
00000070: b404 48bd a99f bcbc

exp_avg_sq f4 [30]
0.022164425 0.0013689509 0.0024225947 0.026450915 0.044861842 0.028775048 0.008272223 0.011927162
0.022848336 0.023915462 0.017488329 0.02248472 0.0361701 0.02032294 0.054716617 0.006617655
0.016608711 0.046909645 0.038193062 0.022145217 0.062757 0.036700036 0.02456231 0.020182913
0.01538989 0.016407391 0.03604029 0.0 0.031519417 0.01364001
00000000: 2b92 b53c 5f6e b33a 65c4 1e3b 97af d83c
00000010: 0dc1 373d a6b9 eb3c 3888 073c 256a 433c
00000020: 6f2c bb3c 5cea c33c af43 8f3c e031 b83c
00000030: 1927 143d 4b7c a63c 881e 603d ead8 d83b
00000040: fe0e 883c 5424 403d 5470 1c3d e369 b53c
00000050: be86 803d c752 163d e636 c93c a356 a53c
00000060: e125 7c3c cb68 863c fc9e 133d 0000 0000
00000070: 811a 013d 597a 5f3c

exp_avg f4 [50, 30]
-0.032729343 0.0002567796 0.0034933141 0.0019726292 -0.0043024067 -0.014296882 0.0015826133 -0.028712977
0.00031249848 -0.018458318 0.0045536924 0.005836459 -0.02980306 -0.040611234 -0.038895685 -0.0042245034
0.007827961 -0.019798275 -0.042807378 -0.020352844 -0.043272384 -0.031124834 -0.046520144 -0.019793082
-0.04159532 0.007987771 0.0030616624 0.0 -0.011859383 -0.006570403 -0.0028254453 0.0015743526
0.0034732365 0.012759245 0.0055724382 0.010058732 0.010925385 0.007086424 0.005074602 0.0038683945
0.0024795104 0.0037013087 -0.0010998179 0.00701564 0.004966424 0.0030405973 0.004847477 0.00491169
-0.0017627312 0.010729624 0.0010641767 0.0009580052 0.0025526911 0.01626407 -0.0015953975 0.004390993
0.0031446046 0.0 0.006294245 0.0046511507 -0.016495554 -0.0013540268 0.0018614265 0.0026346636
-0.010366807 -0.003132933 -0.0058580684 -0.0147916945 1.575307e-05 0.0028683916 0.0051744375 0.0028566115
-0.010463629 -0.019569729 -0.015087994 0.00061887014 0.003183485 -0.023870062 -0.014334386 -0.005496147
-0.035871144 -0.021080058 -0.038250074 -0.011725324 -0.032459065 0.0010074137 0.0055116042 0.0
-0.0028728582 0.00047747605 6e-45 6e-45 0.0 6e-45 0.0 6e-45
-6e-45 6e-45 6e-45 6e-45 6e-45 6e-45 6e-45 6e-45
6e-45 6e-45 0.0 6e-45 6e-45 6e-45 6e-45 6e-45
6e-45 6e-45 0.0 0.0 6e-45 0.0 6e-45 6e-45
6e-45 6e-45 6e-45 6e-45 6e-45 6e-45 6e-45 6e-45
6e-45 6e-45 6e-45 6e-45 6e-45 6e-45 6e-45 6e-45
6e-45 6e-45 6e-45 6e-45 6e-45 6e-45 6e-45 6e-45
6e-45 6e-45 6e-45 0.0 6e-45 6e-45 0.029487606 0.002969388
-0.0016702712 -0.012069244 0.0050292346 0.00027430942 -0.011756243 0.009942412 -0.004462144 0.0051429127
-0.0029524965 -0.00029307348 0.01837091 0.022284925 0.027699132 -0.00050520373 -0.01062201 0.019717973
0.026343687 0.0072533563 0.04315415 0.031649023 0.044305153 0.001966856 0.05413071 -0.0069702826
-0.0022381213 0.0 0.005817684 0.0015984606 -0.006250742 -6.665243e-06 0.0019096654 0.00149898
-0.00094786857 -0.0010976853 0.0020453215 -0.0029807216 0.0007025011 -0.001313638 0.0018369578 0.0008399356
-0.0041115656 -0.0058299843 -0.0065597417 -0.00028361354 0.0030464688 -0.0037636668 -0.0061169034 -0.002436375
-0.009098757 -0.0069843424 -0.009854715 -0.0017571197 -0.0103182 0.0024977748 0.0012050578 0.0
-0.0015808605 -0.0005592477 6e-45 6e-45 6e-45 6e-45 6e-45 6e-45
0.0 6e-45 6e-45 6e-45 6e-45 6e-45 6e-45 6e-45
6e-45 6e-45 6e-45 6e-45 6e-45 6e-45 6e-45 6e-45
6e-45 6e-45 6e-45 6e-45 6e-45 0.0 6e-45 6e-45
0.0055610836 0.0026228535 0.001564728 0.0033330554 0.009615169 0.0022257648 0.0031562508 0.007673445
6e-45 0.0006187692 0.0014383774 0.005105446 0.0033233417 0.007828358 0.006026482 0.0004889555
00000000: 340f 06bd 60a0 8639 16f0 643b 3a47 013b
00000010: 34fb 8cbb 783d 6abc b16f cf3a 7a37 ebbc
00000020: d6d6 a339 e635 97bc 2437 953b c43f bf3b
00000030: 8c25 f4bc f757 26bd 1551 1fbd b46d 8abb
00000040: d940 003c fe2f a2bc ca56 2fbd 02bb a6bc
00000050: 623e 31bd 82f9 febc e88b 3ebd 1a25 a2bc
00000060: db5f 2abd 24df 023c 2ca6 483b 0000 0000
00000070: dc4d 42bc 894c d7bb 1b2b 39bb 825a ce3a
00000080: 3d9f 633b 270c 513c 0099 b63b 61cd 243c
00000090: 6300 333c 3c35 e83b d948 a63b e484 7d3b
000000a0: 487f 223b a891 723b c427 90ba 74e3 e53b
000000b0: 62bd a23b c244 473b 96d7 9e3b 3ef2 a03b
000000c0: 720b e7ba 4ecb 2f3c d87b 8b3a a422 7b3a
000000d0: 0d4b 273b 3a3c 853c a81c d1ba 52e2 8f3b
000000e0: b615 4e3b 0000 0000 f43f ce3b ae68 983b
000000f0: af21 87bc 9a79 b1ba 1cfb f33a 52aa 2c3b
00000100: 8ad9 29bc e551 4dbb 0af5 bfbb dd58 72bc
00000110: 7625 8437 a0fb 3b3b 548e a93b fd35 3b3b
00000120: a46f 2bbc b250 a0bc a233 77bc ac3b 223a
00000130: 04a2 503b 268b c3bc c6da 6abc 0619 b4bb
00000140: 9fed 12bd 16b0 acbc 1cac 1cbd 931b 40bc
00000150: ccf3 04bd 320b 843a b09a b43b 0000 0000
00000160: 9046 3cbb c055 fa39 0400 0000 0400 0000
00000170: 0000 0000 0400 0000 0000 0000 0400 0000
00000180: 0400 0080 0400 0000 0400 0000 0400 0000
00000190: 0400 0000 0400 0000 0400 0000 0400 0000
000001a0: 0400 0000 0400 0000 0000 0000 0400 0000
000001b0: 0400 0000 0400 0000 0400 0000 0400 0000
000001c0: 0400 0000 0400 0000 0000 0000 0000 0000
000001d0: 0400 0000 0000 0000 0400 0000 0400 0000
000001e0: 0400 0000 0400 0000 0400 0000 0400 0000
000001f0: 0400 0000 0400 0000 0400 0000 0400 0000
00000200: 0400 0000 0400 0000 0400 0000 0400 0000
00000210: 0400 0000 0400 0000 0400 0000 0400 0000
00000220: 0400 0000 0400 0000 0400 0000 0400 0000
00000230: 0400 0000 0400 0000 0400 0000 0400 0000
00000240: 0400 0000 0400 0000 0400 0000 0000 0000
00000250: 0400 0000 0400 0000 fe8f f13c 109a 423b
00000260: 00ed daba 14be 45bc 47cc a43b 30d1 8f39
00000270: 429d 40bc 80e5 223c 2d37 92bb e185 a83b
00000280: ac7e 41bb a8a7 99b9 977e 963c e08e b63c
00000290: 4ae9 e23c a66f 04ba f007 2ebc 9687 a13c
000002a0: b7ce d73c 90ad ed3b 68c2 303d 68a2 013d
000002b0: 5279 353d 5ee6 003b 2ab8 5d3d f866 e4bb
000002c0: 72ad 12bb 0000 0000 45a2 be3b 7083 d13a
000002d0: 06d3 ccbb 00a6 dfb6 bd4d fa3a 6c79 c43a
000002e0: 627a 78ba 35e0 8fba cd0a 063b 3658 43bb
000002f0: 0d28 383a 602e acba 13c6 f03a 202f 5c3a
00000300: 50ba 86bb 7409 bfbb 1af3 d6bb f7b1 94b9
00000310: 44a7 473b daa7 76bb 4e70 c8bb 97ab 1fbb
00000320: f412 15bc e9dc e4bb ac75 21bc 274f e6ba
00000330: ab0d 29bc b5b1 233b 08f3 9d3a 0000 0000
00000340: e034 cfba 7a9a 12ba 0400 0000 0400 0000
00000350: 0400 0000 0400 0000 0400 0000 0400 0000
00000360: 0000 0000 0400 0000 0400 0000 0400 0000
00000370: 0400 0000 0400 0000 0400 0000 0400 0000
00000380: 0400 0000 0400 0000 0400 0000 0400 0000
00000390: 0400 0000 0400 0000 0400 0000 0400 0000
000003a0: 0400 0000 0400 0000 0400 0000 0400 0000
000003b0: 0400 0000 0000 0000 0400 0000 0400 0000
000003c0: c039 b63b 2ee4 2b3b 8f17 cd3a 646f 5a3b
000003d0: f188 1d3c 23de 113b 1ad9 4e3b 8671 fb3b
000003e0: 0400 0000 e634 223a f087 bc3a 964b a73b
000003f0: 6ccc 593b 8342 003c cc79 c53b 402d 003a

exp_avg_sq f4 [50, 30]
0.0071970667 0.0006232168 0.0008115475 0.0030602005 0.0031352816 0.0026635511 0.0015691328 0.009987934
0.00012079839 0.007734079 0.0015427446 0.001220378 0.0054858625 0.011160391 0.01353614 0.0004049536
0.001219636 0.011312981 0.0077791675 0.004273452 0.02123558 0.008980607 0.020083275 0.00588205
0.022770341 0.0003442528 0.005508729 0.0 0.0060186037 0.0015760863 0.00020863638 6.762516e-05
7.5227596e-05 0.0008015311 0.00050293654 0.00057639723 0.00045141327 0.0009913491 7.654643e-05 0.00039655954
0.00022144438 0.00020385804 0.00020638415 0.0008049513 0.0008074057 7.572446e-05 0.00025282818 0.0010125255
0.0002686836 0.0007755287 0.00097243994 0.00032547023 0.0009185144 0.0013043985 0.0006947115 9.392966e-05
0.0003233698 0.0 0.0004939119 0.00023352102 0.004687688 0.00028563384 0.0006744579 0.0011350755
0.0009255202 0.0011291181 0.00035054144 0.0050705 3.797887e-05 0.005295297 0.00087139016 0.00040237722
0.0037552465 0.0061355177 0.008379866 0.00019551557 0.00053692196 0.004982911 0.0049889665 0.0020522503
0.011509274 0.0054178447 0.010687881 0.002207903 0.013489575 0.00012124377 0.0037724795 0.0
0.0037751223 0.0008256484 7e-43 7e-43 0.0 7e-43 0.0 7e-43
7e-43 7e-43 7e-43 7e-43 7e-43 7e-43 7e-43 7e-43
7e-43 7e-43 0.0 7e-43 7e-43 7e-43 7e-43 7e-43
7e-43 7e-43 0.0 0.0 7e-43 0.0 7e-43 7e-43
7e-43 7e-43 7e-43 7e-43 7e-43 7e-43 7e-43 7e-43
7e-43 7e-43 7e-43 7e-43 7e-43 7e-43 7e-43 7e-43
7e-43 7e-43 7e-43 7e-43 7e-43 7e-43 7e-43 7e-43
7e-43 7e-43 7e-43 0.0 7e-43 7e-43 0.007994092 0.0006209969
0.00113421 0.004586779 0.0063431845 0.0038223285 0.0030753657 0.013808096 0.00026010492 0.009571895
0.0011517158 0.001659297 0.006679807 0.013640234 0.015667537 0.00053081673 0.0016043462 0.015298739
0.008922397 0.0057353415 0.024858864 0.010152225 0.023201818 0.009036029 0.026674703 0.0007082508
0.0063539785 0.0 0.0072688023 0.0018433293 0.00042093842 4.3180382e-05 6.9556336e-05 0.00023883875
0.00027141982 0.00018493179 0.00013616274 0.0006878891 1.0888377e-05 0.0005103363 0.00011882474 0.000107443804
0.00035707036 0.0006912149 0.00081949227 2.7952294e-05 0.000110082605 0.00073021435 0.00047875787 0.0002789369
0.0012350192 0.0005156486 0.0011508218 0.00042083906 0.0013278725 3.6683898e-05 0.00035305184 0.0
0.00038006552 0.00010846517 1.2600465e-27 2.097056e-29 7.0963816e-28 7e-43 7e-43 2.7578315e-28
0.0 1.0911762e-27 7e-43 3.532152e-27 3.0099887e-28 7e-43 3.852204e-27 9.061731e-28
3.7805904e-28 3.3903835e-28 3.8464403e-28 7e-43 3.7525424e-27 2.859881e-29 7.6399203e-29 7e-43
7e-43 7.316089e-33 7e-43 6.5071973e-28 5.6965427e-29 0.0 3.676183e-30 2.1161877e-28
0.00016162379 3.1982887e-05 1.8321361e-05 6.014894e-05 0.00045785235 1.6225198e-05 6.7301575e-05 0.0001978374
2.4280842e-23 5.9831178e-05 1.3718425e-05 0.0001609502 4.4394248e-05 0.00021337514 0.00022865176 1.6307888e-06
00000000: 5fd5 eb3b 5f5f 233a 08be 543a a58d 483b
00000010: 4c79 4d3b f98e 2e3b 5cab cd3a 6ea4 233c
00000020: 2455 fd38 286e fd3b eb35 ca3a 17f5 9f3a
00000030: c0c2 b33b 13da 363c b0c6 5d3c f44f d439
00000040: 31dc 9f3a 155a 393c 63e8 fe3b 5008 8c3b
00000050: 3df6 ad3c 6523 133c ae85 a43c 36be c03b
00000060: de88 ba3c d47c b439 9182 b43b 0000 0000
00000070: b537 c53b ae94 ce3a 67c5 5a39 fbd1 8d38
00000080: 82c3 9d38 d71d 523a 80d7 033a 5d19 173a
00000090: aaab ec39 28f0 813a 8d87 a038 52e9 cf39
000000a0: 8633 6839 bac2 5539 d368 5839 5e03 533a
000000b0: 14a8 533a 43ce 9e38 068e 8439 b8b6 843a
000000c0: 1ade 8c39 da4c 4b3a 57eb 7e3a e0a3 aa39
000000d0: 75c8 703a 5af8 aa3a 4d1d 363a 1afc c438
000000e0: f689 a939 0000 0000 de79 013a 52dd 7439
000000f0: 2d9b 993b 20c1 9539 1ace 303a d0c6 943a
00000100: 9c9e 723a ebfe 933a e0c8 b739 7026 a63b
00000110: 804b 1f38 2c84 ad3b 016e 643a 28f6 d239
00000120: 951a 763b 740c c93b b54b 093c 5003 4d39
00000130: 39c0 0c3a b047 a33b 7c7a a33b 0c7f 063b
00000140: 6591 3c3c 2d88 b13b 391c 2f3c 77b2 103b
00000150: 6103 5d3c 4144 fe38 b43b 773b 0000 0000
00000160: 0b68 773b 5470 583a f401 0000 f401 0000
00000170: 0000 0000 f401 0000 0000 0000 f401 0000
00000180: f401 0000 f401 0000 f401 0000 f401 0000
00000190: f401 0000 f401 0000 f401 0000 f401 0000
000001a0: f401 0000 f401 0000 0000 0000 f401 0000
000001b0: f401 0000 f401 0000 f401 0000 f401 0000
000001c0: f401 0000 f401 0000 0000 0000 0000 0000
000001d0: f401 0000 0000 0000 f401 0000 f401 0000
000001e0: f401 0000 f401 0000 f401 0000 f401 0000
000001f0: f401 0000 f401 0000 f401 0000 f401 0000
00000200: f401 0000 f401 0000 f401 0000 f401 0000
00000210: f401 0000 f401 0000 f401 0000 f401 0000
00000220: f401 0000 f401 0000 f401 0000 f401 0000
00000230: f401 0000 f401 0000 f401 0000 f401 0000
00000240: f401 0000 f401 0000 f401 0000 0000 0000
00000250: f401 0000 f401 0000 a7f9 023c 66ca 223a
00000260: c6a9 943a b14c 963b 7dda cf3b 0880 7a3b
00000270: 138c 493b 5a3b 623c b15e 8839 70d3 1c3c
00000280: 2bf5 963a c57c d93a 48e2 da3b 4a7b 5f3c
00000290: 3559 803c 8226 0b3a ed48 d23a 90a7 7a3c
000002a0: 3f2f 123c 88ef bb3b d1a4 cb3c 8555 263c
000002b0: bd11 be3c da0b 143c e884 da3c e8a9 393a
000002c0: 0935 d03b 0000 0000 222f ee3b de9b f13a
000002d0: 66b1 dc39 951c 3538 c6de 9138 ca70 7a39
000002e0: 5a4d 8e39 40ea 4139 e8c6 0e39 7553 343a
000002f0: 39ad 3637 17c8 053a 8c31 f938 7453 e138
00000300: 2c35 bb39 a632 353a 32d3 563a 187b ea37
00000310: 26dc e638 db6b 3f3a cb01 fb39 473e 9239
00000320: 5ee0 a13a 972c 073a 2cd7 963a 10a4 dc39
00000330: 020c ae3a 09dd 1938 d119 b939 0000 0000
00000340: 8843 c739 cb77 e338 8fa9 c712 b0aa d40f
00000350: b0e4 6012 f401 0000 f401 0000 60cc ae11
00000360: 0000 0000 5ee7 ac12 f401 0000 47ec 8b13
00000370: dcc7 be11 f401 0000 fd99 9813 bf96 8f12
00000380: 969f ef11 1ee4 d611 10cc f311 f401 0000
00000390: 4da7 9413 6103 1110 ebb1 c110 f401 0000
000003a0: f401 0000 00f3 170a f401 0000 a838 4e12
000003b0: ad6c 9010 0000 0000 ab1f 950e 1c21 8611
000003c0: 8e79 2939 5d25 0638 d3b0 9937 6f48 7c38
000003d0: e70b f039 591b 8837 4224 8d38 9372 4f39
000003e0: 74d4 ea19 3df3 7a38 3028 6637 bec4 2839
000003f0: f633 3a38 74bd 5f39 3dc2 6f39 7ae1 da35

exp_avg f4 [50]
-0.0020482615 0.0046022646 0.0033738376 6e-45 6e-45 -0.0020858797 0.00040958286 6e-45
0.0011625579 -0.005912862 -0.014816972 0.005803905 -0.00040023634 -0.0015420464 0.0030394061 0.0062712943
-0.0022529569 0.017049164 6e-45 0.00078940904 0.0019762935 0.0024921517 3.2292097e-05 -0.0041895537
-0.0054937815 -0.00037215074 0.0062947227 0.0021061762 0.0063685337 -0.004711001 6e-45 6e-45
-0.0041551283 6e-45 6e-45 6e-45 6e-45 6e-45 0.0011881888 -0.0034893178
-0.002538472 6e-45 6e-45 -0.0051768865 -0.008575066 -0.00018060207 0.002352656 0.00046815095
-0.006873145 0.0015299204
00000000: 203c 06bb 98ce 963b 9a1b 5d3b 0400 0000
00000010: 0400 0000 41b3 08bb 48bd d639 0400 0000
00000020: f860 983a aec0 c1bb e3c2 72bc af2e be3b
00000030: d0d6 d1b9 7e1e caba c630 473b 6e7f cd3b
00000040: 58a6 13bb b0aa 8b3c 0400 0000 58f0 4e3a
00000050: b484 013b 5e53 233b 6071 0738 8648 89bb
00000060: 2e05 b4bb 3a1d c3b9 f643 ce3b c607 0a3b
00000070: 22af d03b be5e 9abb 0400 0000 0400 0000
00000080: be27 88bb 0400 0000 0400 0000 0400 0000
00000090: 0400 0000 0400 0000 00bd 9b3a 0aad 64bb
000000a0: 7e5c 26bb 0400 0000 0400 0000 dfa2 a9bb
000000b0: 6f7e 0cbc 0060 3db9 052f 1a3b 2872 f539
000000c0: 1e38 e1bb 9c87 c83a

exp_avg_sq f4 [50]
0.0013316087 0.00022206431 0.0006840357 7e-43 7e-43 0.0014326711 9.489238e-05 1.6835436e-28
5.734284e-06 0.0050695534 0.0023957884 0.0033658042 0.00030642323 0.00024084016 0.00028224642 0.0007352009
0.0002388817 0.0024811486 7e-43 0.00021342278 0.00031624868 0.0025898498 0.00019306193 0.0045991144
0.0012521704 9.534894e-05 0.0010093348 0.0005768153 0.0021943024 0.00084112026 7e-43 7e-43
0.00076463184 7e-43 7e-43 7.7655215e-22 7e-43 7e-43 0.00030978431 0.00046373368
0.00023687804 7e-43 7e-43 0.00045891487 0.008254009 1.6930626e-05 0.00010705199 0.00011093151
0.0009708882 0.00031169914
00000000: 6089 ae3a efd9 6839 dc50 333a f401 0000
00000010: f401 0000 77c8 bb3a f500 c738 1d6a 5511
00000020: 2069 c036 7f1e a63b a902 1d3b d394 5c3b
00000030: 6ea7 a039 0a8a 7c39 79fa 9339 7fba 403a
00000040: 517c 7a39 c49a 223b f401 0000 3eca 5f39
00000050: 2ece a539 78ba 293b ab70 4a39 2bb4 963b
00000060: de1f a43a 13f6 c738 a84b 843a 6b35 173a
00000070: 49ce 0f3b a07e 5c3a f401 0000 f401 0000
00000080: 9371 483a f401 0000 f401 0000 d0b2 6a1c
00000090: f401 0000 f401 0000 8c6a a239 4821 f339
000000a0: 7762 7839 f401 0000 f401 0000 839a f039
000000b0: d33b 073c 3e06 8e37 1981 e038 e7a3 e838
000000c0: 3483 7e3a 8d6b a339

exp_avg f4 [3, 50]
-0.051578842 -0.032170966 0.041956495 6e-45 -6e-45 0.009357662 -0.0074360454 6e-45
0.012927234 -0.0034588512 -0.00091758417 -0.093969 -6e-45 -0.022261074 -0.04633904 -0.0072790883
-0.00053446274 -0.006783068 6e-45 -0.01212361 -0.030190974 -0.09319871 -0.013136269 -0.17301384
0.010995844 -0.0066053607 0.049804695 -0.004270392 -0.0017579636 0.00032781012 0.0 6e-45
0.013393509 6e-45 -6e-45 6e-45 0.0 6e-45 -0.017568769 0.023302954
0.025596473 6e-45 6e-45 -0.043875206 -0.008399835 0.00027187297 -0.004403161 -0.008386238
0.007358347 -0.019572752 0.028442776 0.02279829 -0.057906084 6e-45 -6e-45 -0.0006377252
0.017939948 6e-45 -0.003003535 0.06795854 0.00010071075 0.056737274 -5.358411e-05 0.020016748
0.011676062 -0.020338837 0.014651956 -0.035148084 6e-45 0.006940509 0.011694469 0.049721733
0.014509475 0.07089155 -6.0715305e-05 0.014340117 -0.070010245 -0.026186863 0.0019073772 -0.02651296
0.0 6e-45 -0.0015365817 6e-45 6e-45 6e-45 0.0 6e-45
0.013331775 -0.0051227533 -0.0037201014 0.0 6e-45 0.001275556 0.041357398 0.0030755782
0.0039892243 0.010753948 3.2668962e-05 0.009990994 0.07651512 0.02804215 0.09956804 6e-45
-6e-45 0.123024985 0.05190561 6e-45 0.0057460237 -0.055356074 0.078558005 0.042699087
0.00070745684 -0.007942157 0.109584026 -0.0052658087 0.0049928934 -0.009364253 0.0 0.07008472
0.080549166 0.03815074 0.05197588 0.16341323 0.057391386 0.035684638 0.13075502 0.10736783
-0.0030791871 -0.0010091253 6e-45 6e-45 0.021992963 6e-45 0.0 -6e-45
6e-45 6e-45 0.081422515 0.035384946 0.047662284 6e-45 6e-45 0.012283767
-0.032242622 0.042759083 0.0010156836 0.053258542 0.11931954 0.09112741
00000000: 5644 53bd b4c5 03bd 93da 2b3d 0400 0000
00000010: 0400 0080 e150 193c 12aa f3bb 0400 0000
00000020: c0cc 533c e5ad 62bb 088a 70ba d272 c0bd
00000030: 0400 0080 db5c b6bc 01ce 3dbd 6b85 eebb
00000040: 301b 0cba 8044 debb 0400 0000 1ba2 46bc
00000050: 1053 f7bc f7de bebd 8139 57bc 8a2a 31be
00000060: ea27 343c c871 d8bb 0200 4c3d a5ee 8bbb
00000070: 786b e6ba eedd ab39 0000 0000 0400 0000
00000080: 7370 5b3c 0400 0000 0400 0080 0400 0000
00000090: 0000 0000 0400 0000 61ec 8fbc d6e5 be3c
000000a0: b2af d13c 0400 0000 0400 0000 7db6 33bd
000000b0: 769f 09bc 2c8a 8e39 6448 90bb 6e66 09bc
000000c0: 4a1e f13b 0957 a0bc d300 e93c 7bc3 ba3c
000000d0: ee2e 6dbd 0400 0000 0400 0080 042d 27ba
000000e0: ccf6 923c 0400 0000 f5d6 44bb d92d 8b3d
000000f0: ac34 d338 5865 683d 80bf 60b8 2afa a33c
00000100: f44c 3f3c a29d a6bc c20e 703c 70f7 0fbd
00000110: 0400 0000 366d e33b 289a 3f3c 04a9 4b3d
00000120: 26b9 6d3c 972f 913d 90a8 7eb8 cff2 6a3c
00000130: 8861 8fbd d585 d6bc f500 fa3a b531 d9bc
00000140: 0000 0000 0400 0000 2067 c9ba 0400 0000
00000150: 0400 0000 0400 0000 0000 0000 0400 0000
00000160: 846d 5a3c c5dc a7bb f2cc 73bb 0000 0000
00000170: 0400 0000 8f30 a73a 6066 293d a48f 493b
00000180: 0ab8 823b 5431 303c 0806 0938 44b1 233c
00000190: f6b3 9c3d a7b8 e53c 54ea cb3d 0400 0000
000001a0: 0400 0080 86f4 fb3d fa9a 543d 0400 0000
000001b0: 2449 bc3b 0dbd 62bd 05e3 a03d 3de5 2e3d
000001c0: a074 393a d21f 02bc 976d e03d ce8c acbb
000001d0: 6d9b a33b 866c 19bc 0000 0000 9488 8f3d
000001e0: f6f6 a43d f343 1c3d a9e4 543d cc55 273e
000001f0: 3b13 6b3d 0e2a 123d a5e4 053e aae3 db3d
00000200: 30cc 49bb a044 84ba 0400 0000 0400 0000
00000210: 962a b43c 0400 0000 0000 0000 0400 0080
00000220: 0400 0000 0400 0000 d9c0 a63d ceef 103d
00000230: 8739 433d 0400 0000 0400 0000 da41 493c
00000240: d710 04bd 2624 2f3d b020 853a a125 5a3d
00000250: ce5d f43d 02a1 ba3d

exp_avg_sq f4 [3, 50]
0.013570165 0.0017839173 0.031617135 7e-43 7e-43 0.016664749 0.0028208294 7e-43
0.0011866108 9.630612e-05 0.00013725122 0.013242523 6.500153e-13 0.0008076071 0.01189128 0.00055758614
2.5520249e-05 0.0008905919 7e-43 0.008091606 0.009279247 0.012876969 0.005879921 0.050924942
0.0012843583 0.0036688559 0.021552315 0.0261652 2.1632066e-05 0.00018212602 0.0 7e-43
0.0014210787 7e-43 7e-43 7e-43 0.0 7e-43 0.009230291 0.0042325514
0.005247911 7e-43 7e-43 0.0026440448 0.00022270007 0.0002067838 0.0012321612 0.002846298
0.0011635975 0.012844105 0.038158942 0.014066344 0.050793488 7e-43 7e-43 0.0028324064
0.0059168614 7e-43 8.4716055e-05 0.024905883 0.00049288286 0.039306525 0.00019075851 0.004130969
0.037260965 0.010699929 0.001287666 0.0230122 7e-43 0.02012496 0.024711123 0.03431777
0.016089411 0.12786189 0.000113531205 0.0089437105 0.053535376 0.05635236 0.00049580564 0.0066715437
0.0 7e-43 0.0049986136 7e-43 7e-43 8.211205e-23 0.0 7e-43
0.022866776 0.006513683 0.0049086786 0.0 7e-43 0.002239905 0.0077134827 0.00028664886
0.0040995795 0.007571946 2.5893612e-05 0.02709781 0.06101033 0.03279064 0.16231474 7e-43
7e-43 0.17271762 0.05375168 7.7417125e-33 0.0026116092 0.021505827 0.13252383 0.09146321
0.00018433601 0.003508148 0.121363916 0.0015628838 0.0020936267 0.003555015 0.0 0.085411735
0.09374084 0.062907726 0.07447377 0.27352488 0.01715104 0.04248988 0.1555334 0.16781302
0.0027446677 0.0013916036 7e-43 7e-43 0.017346937 7e-43 0.0 4.877116e-26
7e-43 7e-43 0.111946665 0.037357505 0.051850475 7e-43 7e-43 0.002098275
0.0059972266 0.013630259 0.004600122 0.04866606 0.21060987 0.1251875
00000000: 6655 5e3c 55d2 e93a f880 013d f401 0000
00000010: f401 0000 8384 883c aadd 383b f401 0000
00000020: 0d88 9b3a f4f7 c938 18eb 0f39 2bf7 583c
00000030: 8af6 362b 98b5 533a a5d3 423c f92a 123a
00000040: 5114 d637 9c76 693a f401 0000 a892 043c
00000050: fc07 183c ecf9 523c 5aac c03b ac96 503d
00000060: ea57 a83a 3071 703b 7b8e b03c 6758 d63c
00000070: 8276 b537 15f9 3e39 0000 0000 f401 0000
00000080: 7d43 ba3a f401 0000 f401 0000 f401 0000
00000090: 0000 0000 f401 0000 a53a 173c 37b1 8a3b
000000a0: abf6 ab3b f401 0000 f401 0000 b647 2d3b
000000b0: 9884 6939 1bd4 5839 7880 a13a f588 3a3b
000000c0: da83 983a 1570 523c 8d4c 1c3d 8676 663c
000000d0: d50c 503d f401 0000 f401 0000 e59f 393b
000000e0: 3be2 c13b f401 0000 96a9 b138 6c07 cc3c
000000f0: cf34 013a e1ff 203d 5906 4839 145d 873b
00000100: f49e 183d c14e 2f3c e7c6 a83a 1584 bc3c
00000110: f401 0000 1add a43c fb6e ca3c ca90 0c3d
00000120: f1cd 833c 3aee 023e 9a17 ee38 a488 123c
00000130: e947 5b3d bbd1 663d f4f8 013a f79c da3b
00000140: 0000 0000 f401 0000 69cb a33b f401 0000
00000150: f401 0000 e688 c61a 0000 0000 f401 0000
00000160: 1b53 bb3c bc70 d53b fbd8 a03b 0000 0000
00000170: f401 0000 5fcb 123b 62c1 fc3b 5c49 9639
00000180: c455 863b 161e f83b 1c36 d937 3afc dd3c
00000190: f8e5 793d 7a4f 063d d635 263e f401 0000
000001a0: f401 0000 e3dc 303e b92a 5c3d 01ca 200a
000001b0: 8827 2b3b fd2c b03c 54b4 073e 1051 bb3d
000001c0: 524a 4139 f5e8 653b a58d f83d aed9 cc3a
000001d0: 3a35 093b 41fb 683b 0000 0000 59ec ae3d
000001e0: 33fb bf3d c4d5 803d b485 983d 740b 8c3e
000001f0: 5680 8c3c de09 2e3d 2644 1f3e 2dd7 2b3e
00000200: e2df 333b 7866 b63a f401 0000 f401 0000
00000210: 2a1b 8e3c f401 0000 0000 0000 ca80 7115
00000220: f401 0000 f401 0000 4b44 e53d 2f04 193d
00000230: 2a61 543d f401 0000 f401 0000 3783 093b
00000240: 6284 c43b 7351 5f3c 9fbc 963b 1056 473d
00000250: 1daa 573e 2731 003e

exp_avg f4 [3]
-0.0075789858 0.0054150075 -0.0007898393
00000000: 2459 f8bb 6070 b13b 380d 4fba

exp_avg_sq f4 [3]
0.00015170118 0.0014152782 0.0017369199
00000000: fa11 1f39 db80 b93a 5ca9 e33a
