Endgame/pytorch_models/TD3_AntBulletEnv-v0_0_actor.pth (torch_old, 538295 bytes, 6 tensors)

layer_1.weight f4 [400, 28]
-0.0014148802 0.10137831 -0.15554091 -0.13907939 -0.07278733 0.05067697 -0.003744334 0.14984204
-0.016771048 0.050007075 -0.057112902 -0.037147373 -0.1805439 -0.12515956 -0.07790284 0.0070005804
0.07471134 0.11339365 -0.12811881 -0.08229474 0.06864159 0.15692858 -0.038892582 0.14141764
-0.03046079 0.019996986 0.17111893 -0.17531322 -0.11897149 -0.04784374 -0.07366527 0.1632808
-0.12249444 -0.08699474 -0.13203064 -0.17699338 -0.110316575 0.16244875 0.084327355 0.0915945
0.009938866 -0.09688807 0.0319729 -0.17645171 -0.13655218 -0.09742601 0.11923607 0.110804304
-0.083812684 -0.0068189353 0.1208656 0.1878735 0.07500367 0.025530145 0.12671001 -0.111273184
0.035215706 -0.14651898 -0.13098097 -0.097625114 0.085509375 0.07600118 -0.1119441 0.057092875
0.10374595 -0.02385284 0.007215634 0.043788075 0.117240146 0.18145962 -0.14563416 -0.06925627
0.0742719 0.15658112 0.16445373 0.16674976 0.037610218 -0.16433567 0.017384946 -0.118228294
-0.17612277 0.16790928 0.14369448 -0.18851507 0.035372198 -0.031835943 -0.03109914 -0.08650792
0.07267429 -0.11193484 0.06927924 0.095569834 0.135287 0.07066257 -0.18704237 -0.12259219
0.09436168 0.03955424 -0.14742202 -0.108819656 0.1777849 0.12733962 -0.08240101 -0.047563955
-0.18002412 -0.0033967942 -0.14231476 -0.14577271 -0.010412842 0.028374746 -0.07739395 0.11213781
-0.11500308 0.17147683 0.1295095 -0.15936549 -0.04703471 0.008527368 0.027572706 0.044821724
0.07416196 0.011320069 -0.09220987 0.08942433 -0.181281 -0.11201103 -0.047307894 -0.09205577
-0.066112295 -0.15489393 -0.040199384 0.04039617 -0.12311546 -0.009698451 0.1352831 -0.019427419
0.005252242 -0.016303286 0.038246483 0.12016235 0.1790127 0.120014295 0.1794223 -0.013667509
-0.16976681 -0.08959217 0.12867899 -0.0012250692 -0.09393293 -0.1448193 -0.17685941 -0.15950255
-0.038332537 0.10363899 0.102171555 -0.18226048 0.11788373 -0.14788038 -0.039952785 -0.07662713
-0.03640087 -0.037105277 -0.1695832 -0.16317442 -0.029571846 0.0024439543 -0.08584988 0.07118945
-0.17009504 -0.012753889 0.16619466 -0.07708434 0.17065154 0.06844063 -0.17054908 0.11956857
-0.021807507 -0.08436296 0.15112026 -0.15271564 0.020278722 -0.039566964 0.13495459 0.05275336
0.090806976 0.066740766 -0.045445442 -0.03974399 -0.15573674 0.10239892 0.15004776 0.12930633
-0.13330397 0.0084285885 -0.13322002 -0.10403173 -0.11012099 0.06458373 -0.112617 -0.004123062
0.007950127 0.12182231 -0.14285547 -0.12973861 -0.109734714 0.13227497 -0.0679325 0.15940438
0.068337396 0.023930073 -0.0014067888 -0.0373583 0.023710907 -0.043153092 -0.0013278723 0.02411282
-0.14782287 -0.09905153 0.1526018 -0.1533679 -0.0135701 0.18694855 0.06826739 0.0053506643
-0.16377388 0.09361763 -0.1346084 -0.053645298 -0.06340663 -0.027985886 0.0020671487 0.15587397
0.023592323 0.16927002 0.11560278 -0.119477205 0.08475931 -0.1335908 -0.080095425 0.05558397
0.062400445 0.14177977 -0.060836375 0.00030253828 0.0972925 -0.18276323 0.13663049 -0.15627365
0.0026046485 -0.032130152 -0.09953183 0.024977982 0.15627293 -0.055243194 -0.11219764 -0.069892965
00000000: 8073 b9ba 6e9f cf3d 1e46 1fbe d46a 0ebe
00000010: 8611 95bd a892 4f3d 8063 75bb 3170 193e
00000020: 7063 89bc 38d4 4c3d 38ef 69bd d827 18bd
00000030: 80e0 38be d429 00be 868b 9fbd 2065 e53b
00000040: 4202 993d ee3a e83d 9431 03be 258a a8bd
00000050: f693 8c3d e3b1 203e d44d 1fbd c9cf 103e
00000060: e888 f9bc b8d0 a33c cd39 2f3e 4f85 33be
00000070: 53a7 f3bd ccf7 43bd d1dd 96bd 1533 273e
00000080: 5dde fabd 4c2a b2bd 0a33 07be c13d 35be
00000090: a8ed e1bd f758 263e d2b3 ac3d e695 bb3d
000000a0: a0d6 223c 416d c6bd 04f6 023d c2af 34be
000000b0: 56d4 0bbe 4a87 c7bd 0a32 f43d 5eed e23d
000000c0: fca5 abbd 6071 dfbb 6288 f73d e961 403e
000000d0: 869b 993d 9824 d13c 45c0 013e 32e3 e3bd
000000e0: 583e 103d 1209 16be e01f 06be adef c7bd
000000f0: 8a1f af3d 82a6 9b3d f342 e5bd 38da 693d
00000100: c278 d43d 0867 c3bc 2071 ec3b 205b 333d
00000110: 9a1b f03d 8dd0 393e 1f21 15be 3bd6 8dbd
00000120: de1b 983d cd56 203e 8f66 283e 73c0 2a3e
00000130: 2c0d 1a3d 9c47 28be e06a 8e3c ad21 f2bd
00000140: 8759 34be 69f0 2b3e a524 133e 180a 41be
00000150: 70e2 103d 6866 02bd a0c3 febc 102b b1bd
00000160: 42d6 943d 183e e5bd 46e2 8d3d 1eba c33d
00000170: ad88 0a3e 8ab7 903d 0988 3fbe 9d11 fbbd
00000180: b240 c13d a003 223d ccf5 16be d7dc debd
00000190: 3f0d 363e 5165 023e dcc1 a8bd 6cd2 42bd
000001a0: 3e58 38be c09c 5ebb f6ba 11be 7145 15be
000001b0: a09a 2abc 2872 e83c b880 9ebd 82a8 e53d
000001c0: bc86 ebbd 9f97 2f3e 239e 043e b530 23be
000001d0: 78a7 40bd 60b6 0b3c 28e0 e13c fc96 373d
000001e0: 3ae2 973d d077 393c 87d8 bcbd 1a24 b73d
000001f0: baa1 39be 0a66 e5bd ecc5 41bd bc87 bcbd
00000200: e265 87bd 849c 1ebe 1ca8 24bd 7476 253d
00000210: f523 fcbd 40e6 1ebc a787 0a3e 4026 9fbc
00000220: 001b ac3b 788e 85bc 58a8 1c3d ae17 f63d
00000230: 1b4f 373e 0eca f53d 7bba 373e b0ed 5fbc
00000240: 5ad7 2dbe 1a7c b7bd 6dc4 033e 8092 a0ba
00000250: e85f c0bd 834b 14be a21a 35be a354 23be
00000260: 9402 1dbd ae40 d43d 523f d13d 7ea2 3abe
00000270: 066d f13d f46d 17be 88a5 23bd afee 9cbd
00000280: 1419 15bd b4fb 17bd 38a7 2dbe 3217 27be
00000290: a840 f2bc c02a 203b 10d2 afbd c6cb 913d
000002a0: 652d 2ebe b0f5 50bc ef2e 2a3e 65de 9dbd
000002b0: 47bf 2e3e 9a2a 8c3d 6ba4 2ebe 5ee0 f43d
000002c0: a8a5 b2bc 7dc6 acbd 45bf 1a3e 7d61 1cbe
000002d0: 901f a63c f810 22bd 8931 0a3e e813 583d
000002e0: 02f9 b93d 62af 883d 0025 3abd 98ca 22bd
000002f0: 7479 1fbe 86b6 d13d 1fa6 193e e168 043e
00000300: d680 08be 1018 0a3c d46a 08be 960e d5bd
00000310: 1d87 e1bd 7a44 843d bea3 e6bd c01a 87bb
00000320: 4041 023c fa7d f93d b448 12be 33da 04be
00000330: 98bc e0bd 1773 073e 3220 8bbd e73a 233e
00000340: 7af4 8b3d 0009 c43c 0064 b8ba 0405 19bd
00000350: 603d c23c 4cc1 30bd 000c aeba 4088 c53c
00000360: e15e 17be 87db cabd a543 1c3e 7a0c 1dbe
00000370: 2055 5ebc 716f 3f3e c6cf 8b3d a054 af3b
00000380: 57b4 27be 9aba bf3d c9d6 09be 2cbb 5bbd
00000390: 56db 81bd a842 e5bc 0079 073b 6d9d 1f3e
000003a0: b044 c13c 1f55 2d3e 26c1 ec3d 77b0 f4bd
000003b0: 4a96 ad3d 07cc 08be 1209 a4bd 04ac 633d
000003c0: 9c97 7f3d b72e 113e 902f 79bd 009e 9e39
000003d0: 4a41 c73d 4926 3bbe dde8 0b3e 3306 20be
000003e0: c0b2 2a3b e89a 03bd 58d7 cbbd a09e cc3c
000003f0: 0306 203e b046 62bd e0c7 e5bd 0b24 8fbd

layer_1.bias f4 [400]
0.14608558 0.118744686 0.08535133 -0.06439671 0.04369244 -0.005757481 0.13769422 0.09936829
0.0518039 0.04276888 0.062120304 0.04650618 -0.028456181 -0.12816912 0.058802396 0.023505837
0.12865897 0.1092322 -0.15370783 -0.02401352 -0.15450984 0.15908252 0.020250946 -0.129982
0.1647634 0.1285251 -0.0413118 0.09549226 -0.0027428865 -0.013754472 0.080048665 -0.016169965
-0.07687872 0.056096762 -0.062895164 0.11038898 0.16859709 -0.09329251 0.051667333 0.034625202
0.09373243 0.0048578084 0.0068949014 0.047792703 -0.15640758 0.028072596 -0.18647058 -0.022133768
0.10938211 -0.093196765 -0.025467813 0.15496577 0.06722276 0.0014539808 0.01744771 -0.08804533
0.027361616 0.15139978 0.06870882 0.18590473 0.104959175 -0.035783947 -0.028429925 0.089512065
0.0074141026 0.054102466 -0.17473468 0.039048314 0.024339706 -0.17519149 0.032504275 0.07030757
-0.004689768 -0.17456917 0.16495083 -0.15792239 0.11203562 0.007690802 -0.050692677 -0.13428226
0.16593675 0.14879917 -0.12532645 -0.026863173 -0.1255914 -0.098432355 -0.019832745 0.16997807
-0.00937435 0.18550818 -0.18703373 -0.038699627 0.026809901 -0.087338634 0.0058650374 -0.0011857599
0.1321292 -0.024113342 -0.029894173 0.10798408 -0.0688319 0.12264235 0.15953557 -0.110997096
0.023364991 -0.047681242 0.1477728 -0.024012268 -0.035910234 0.12268336 0.02933675 0.1252151
-0.07127484 -0.16503777 0.031199932 0.15769948 0.1426724 -0.081522755 0.16740622 -0.117411934
0.17687325 -0.011227503 -0.09674653 0.041378662 0.15438898 0.119733825 -0.09743662 0.04705049
0.073317334 -0.045456514 0.021416977 0.17844425 -0.05014327 0.1464359 -0.16084398 -0.0703555
0.04379666 -0.0749351 -0.141693 -0.031179354 -0.090042874 0.07636477 0.09079836 -0.13346681
0.103937194 0.11275907 0.121601716 -0.12086687 -0.14985968 -0.006452352 0.06562875 0.08601977
-0.14527427 0.15535535 0.18295382 -0.0148546845 0.02994527 0.032936245 -0.14014801 -0.1798185
0.116932616 0.15242355 -0.004872814 -0.1643275 0.0077617913 -0.123730935 0.06472041 0.17273344
0.18877248 0.15577056 0.043391824 0.18559565 -0.03654246 -0.0062641054 -0.12981153 0.07860799
0.07383661 0.07654862 0.13606603 0.16345428 -0.17856637 -0.05355175 -0.15107101 0.14361604
-0.005919054 -0.1680327 0.08021228 -0.115836404 -0.0035010725 0.100796476 0.10511337 0.117448434
-0.0034180433 -0.01841332 -0.00872919 -0.18624124 -0.06716505 0.14381649 0.09670295 -0.17290078
0.047139183 0.17362545 -0.15027189 -0.018936172 -0.101570494 -0.0027195662 -0.082425445 0.16553737
0.09811933 -0.03661725 -0.16366912 -0.10056235 -0.019961163 0.05086255 -0.07638242 -0.115751065
-0.023201495 -0.15035747 0.04207021 -0.16972673 -0.032150462 -0.15828839 -0.07405219 0.0020543933
-0.09155494 -0.123854145 0.021311745 -0.09594154 0.010329992 0.040250078 -0.020003185 -0.16516244
-0.0538577 -0.019145742 0.055875838 -0.1524649 0.1314023 0.046073765 0.0216382 0.011041909
-0.03108719 0.068364844 0.13166584 -0.038502067 0.08076529 0.11008571 0.07752307 0.0008980036
0.06558864 0.018394351 0.119308814 -0.05577694 0.026327819 0.03094688 -0.17978963 0.047961608
00000000: 7597 153e 6a30 f33d aecc ae3d 6ce2 83bd
00000010: d8f6 323d 40a9 bcbb b7ff 0c3e 9a81 cb3d
00000020: 5430 543d 6c2e 2f3d dc71 7e3d 447d 3e3d
00000030: f01c e9bc c43e 03be c8da 703d 508f c03c
00000040: 2dbf 033e 22b5 df3d 9665 1dbe 00b8 c4bc
00000050: d437 1ebe 87e6 223e 50e5 a53c 001a 05be
00000060: bdb7 283e 159c 033e 9036 29bd 7291 c33d
00000070: 00c2 33bb 705a 61bc 8ef0 a33d e076 84bc
00000080: 9772 9dbd b8c5 653d 2ecf 80bd 9e13 e23d
00000090: b7a4 2c3e 2510 bfbd 20a1 533d 28d3 0d3d
000000a0: caf6 bf3d 402e 9f3b a0ee e13b 48c2 433d
000000b0: 4f29 20be 80f8 e53c 25f2 3ebe e051 b5bc
000000c0: ba03 e03d f2dd bebd e0a1 d0bc 59af 1e3e
000000d0: 16ac 893d 8093 be3a 80ee 8e3c 1c51 b4bd
000000e0: 7825 e03c 8b08 1b3e 36b7 8c3d cf5d 3e3e
000000f0: d6f4 d63d 3092 12bd e0e5 e8bc 1a52 b73d
00000100: 00f2 f23b 8c9a 5d3d a6ed 32be 20f1 1f3d
00000110: 1064 c73c 6665 33be 3423 053d 6afd 8f3d
00000120: a0ac 99bb 43c2 32be dfe8 283e 68b6 21be
00000130: ee72 e53d 2003 fc3b 20a3 4fbd 4a81 09be
00000140: 53eb 293e cf5e 183e 9455 00be 2810 dcbc
00000150: 089b 00be e796 c9bd 4878 a2bc bb0e 2e3e
00000160: e096 19bc dbf5 3d3e c585 3fbe 8083 1ebd
00000170: 70a0 db3c 99de b2bd 802f c03b 806b 9bba
00000180: e14c 073e 5889 c5bc a0e4 f4bc c226 dd3d
00000190: bdf7 8cbd ea2b fb3d 4b5d 233e 7252 e3bd
000001a0: f067 bf3c 684d 43bd c151 173e 60b5 c4bc
000001b0: 9c16 13bd 6a41 fb3d a053 f03c 6338 003e
000001c0: 8bf8 91bd a9ff 28be 0097 ff3c f97b 213e
000001d0: b718 123e 67f5 a6bd 896c 2b3e ab75 f0bd
000001e0: 431e 353e 90f3 37bc 0b23 c6bd ac7c 293d
000001f0: 2518 1e3e 0237 f53d da8c c7bd 04b8 403d
00000200: 6627 963d 9c30 3abd a872 af3c 17ba 363e
00000210: 0863 4dbd 4bf3 153e 49b4 24be 8b16 90bd
00000220: 2064 333d 9377 99bd f817 11be d86b ffbc
00000230: 6668 b8bd 2265 9c3d 7ef4 b93d 86ab 08be
00000240: 06dd d43d 3aee e63d 520a f93d 0d89 f7bd
00000250: d174 19be 406e d3bb 5e68 863d 222b b03d
00000260: c7c2 14be 7915 1f3e 3f58 3b3e 1061 73bc
00000270: c84f f53c 28e8 063d f682 0fbe 5722 38be
00000280: 5e7a ef3d eb14 1c3e 20ac 9fbb 7845 28be
00000290: a056 fe3b a566 fdbd 228c 843d 09e1 303e
000002a0: 934d 413e 5182 1f3e a0bb 313d c90c 3e3e
000002b0: 8cad 15bd 2043 cdbb 50ed 04be 3afd a03d
000002c0: a637 973d 86c5 9c3d e554 0b3e 8f60 273e
000002d0: 1ada 36be 1459 5bbd 5cb2 1abe 1510 133e
000002e0: a0f4 c1bb c410 2cbe 5646 a43d a33b edbd
000002f0: 4072 65bb 626e ce3d ae45 d73d ce88 f03d
00000300: 4001 60bb 88d7 96bc e004 0fbc 06b6 3ebe
00000310: d48d 89bd a144 133e 320c c63d e70c 31be
00000320: 0415 413d dfca 313e e0e0 19be 0820 9bbc
00000330: 3104 d0bd c03a 32bb acce a8bd a182 293e
00000340: caf2 c83d f8fb 15bd e198 27be a2f3 cdbd
00000350: 9885 a3bc 4055 503d 636e 9cbd e50e edbd
00000360: 1011 bebc 4ff7 19be d051 2c3d d8cc 2dbe
00000370: 34b0 03bd 5a16 22be ada8 97bd 00a3 063b
00000380: 2881 bbbd 3ea7 fdbd f895 ae3c 007d c4bd
00000390: 203f 293c 44dd 243d b8dd a3bc 5820 29be
000003a0: e499 5cbd 88d7 9cbc 10de 643d c21f 1cbe
000003b0: 538e 063e d8b7 3c3d 9842 b13c 20e9 343c
000003c0: 90aa febc de02 8c3d 69d3 063e 58b4 1dbd
000003d0: 4668 a53d 9e74 e13d 6ac4 9e3d 0068 6b3a
000003e0: 5653 863d c0af 963c 2e58 f43d 5c76 64bd
000003f0: 70ad d73c 5084 fd3c c61a 38be 6473 443d

layer_2.weight f4 [300, 400]
0.047633898 -0.04864365 -0.026800646 0.03811655 0.04603192 -0.045517024 0.016209636 -0.04921512
-0.036236446 0.022473607 -0.0248438 -0.0037714727 -0.018670857 -0.04505218 -0.04500903 0.02061518
0.030477915 -0.008927088 0.040521022 -0.037394512 -0.012903653 -0.043653138 0.04592893 0.009450156
0.0015822574 -0.025225395 -0.04484812 0.044045392 0.022310402 -0.009128936 0.0028453656 0.014072236
-0.023658229 0.04876632 0.007587593 0.002449721 0.031362604 -0.03372194 0.029205937 -0.021081006
-0.039055794 -0.014577556 -0.01976834 0.045701828 0.0062717125 -0.034422897 -0.037253357 -0.025067408
-0.04949681 -0.0023259223 0.00071796775 -0.04658347 0.00952474 -0.010619275 -0.008141566 -0.042226095
0.027592417 -0.0072976165 0.008838911 0.0035062023 0.012567479 0.024672989 -0.0071875863 -0.013478268
-0.002581261 -0.041475553 0.010961063 -0.02006556 0.038299132 0.047781188 0.012364119 -0.016766123
-0.013637286 0.03780422 -0.009873092 0.024225596 -0.035417844 -0.008990448 0.022915069 0.035284545
-0.0027815178 0.005755484 -0.014024608 -0.023225749 0.047667067 -0.021150304 -0.017524868 0.036533687
0.041037176 -0.017174982 -0.018544786 -0.03648143 0.02451663 -0.009654749 -0.020625377 -0.04196778
-0.014943104 0.016123746 -0.04227465 0.023814399 -0.037960093 0.048005905 -0.034384333 0.045504544
-0.008456588 0.02894682 -0.0037848875 -0.024834258 -0.008503068 0.020677906 0.026660684 0.04462434
0.00155719 0.018888656 0.033075888 -0.020612478 -0.016208123 0.022915583 -0.012372304 0.014196578
0.021663401 -0.0076647922 -0.014108706 0.04557172 0.019565735 -0.048541 -0.047003906 -0.00820484
-0.030031724 0.039791133 0.036912743 0.03250784 0.041103993 0.037596855 0.04126588 0.0017903447
0.043296877 0.016642284 0.025566388 -0.02488082 0.021698166 -0.041967057 0.000906121 -0.02784127
0.0046850517 0.0050977767 -0.0053368136 0.04972921 -0.046338763 -0.04915912 0.0032530501 -0.032901604
-0.03318491 -0.029928762 0.040283237 -0.031810217 -0.04112898 0.035862412 -0.032151956 -0.0056035705
-0.030139728 0.0147978775 0.043095533 -0.030203326 -0.036338218 0.020959768 -0.030356765 0.019195925
0.0308743 0.037862334 0.0064362213 0.045936536 -0.013357602 0.028456572 -0.015510611 -0.027032394
0.014951978 0.027141694 0.02351207 0.032680605 -0.00025146082 0.01963729 0.03567392 -0.03417179
-0.009694912 0.030966062 -0.009116907 0.04220346 0.023207601 -0.020973463 0.039219733 -0.019485224
0.032484416 0.03922605 0.030979443 0.038971025 0.004010964 -0.042500645 0.039082024 0.004804842
-0.01969695 -0.0077030063 -0.029335512 0.02241255 -0.04810838 0.023178618 -0.047471054 -0.024319232
0.03413487 -0.007647425 0.034808908 0.039712142 -0.01567465 0.00071290135 -0.037965704 -0.015216701
0.01926047 -0.014488053 0.04079176 0.026826616 0.031970296 0.03913117 0.0033234432 -0.0019431114
-0.009872269 0.046548586 0.034373928 -0.038132258 0.014001947 -0.013731547 0.042325024 -0.028825104
-0.038936205 0.011084419 -0.034229524 0.04358189 0.046510857 -0.034929864 -0.008443695 -0.006369613
-0.046411153 -0.03785838 0.046545412 0.036796685 -0.017764043 0.019024055 -0.010903675 0.0077932477
-0.0033330135 0.017567147 -0.026918638 0.043161694 -0.008679867 0.049276892 -0.027754957 -0.008932304
00000000: c31b 433d 903e 47bd 078d dbbc 1920 1c3d
00000010: f78b 3c3d 0f70 3abd 12ca 843c cb95 49bd
00000020: ab6c 14bd 921a b83c 3a85 cbbc d02a 77bb
00000030: a0f3 98bc a288 38bd 635b 38bd 2ae1 a83c
00000040: d2ac f93c ec42 12bc 5ff9 253d fd2a 19bd
00000050: d869 53bc a2cd 32bd f91f 3c3d d4d4 1a3c
00000060: c063 cf3a 7da5 cebc aab2 37bd f168 343d
00000070: 4ec4 b63c 8891 15bc 5079 3a3b 3c8f 663c
00000080: e7ce c1bc 31bf 473d 58a1 f83b 808b 203b
00000090: 1376 003d 0420 0abd 4a41 ef3c 13b2 acbc
000000a0: f8f8 1fbd b4d6 6ebc 37f1 a1bc d731 3b3d
000000b0: f082 cd3b 06ff 0cbd fa96 18bd 2a5a cdbc
000000c0: 2bbd 4abd 806e 18bb 0036 3c3a 4fce 3ebd
000000d0: a80d 1c3c 78fc 2dbc 3464 05bc 45f5 2cbd
000000e0: 7e09 e23c d820 efbb 14d1 103c 50c8 653b
000000f0: d4e7 4d3c 021f ca3c d885 ebbb f4d3 5cbc
00000100: 602a 29bb 45e2 29bd 0896 333c 8760 a4bc
00000110: 8ddf 1c3d 35b6 433d e092 4a3c 1c59 89bc
00000120: ec6e 5fbc 99d8 1a3d c0c2 21bc c274 c63c
00000130: 4d12 11bd ac4c 13bc 62b8 bb3c 8786 103d
00000140: 204a 36bb 8098 bc3b 78c7 65bc ed43 bebc
00000150: 8b3e 433d 6743 adbc 5090 8fbc 59a4 153d
00000160: 9916 283d 8cb2 8cbc 3ceb 97bc 8d6d 15bd
00000170: 1ad7 c83c f42e 1ebc 8df6 a8bc 68e6 2bbd
00000180: ecd3 74bc f215 843c 2f28 2dbd 6a16 c33c
00000190: 0b7c 1bbd d7a1 443d 96d6 0cbd f962 3a3d
000001a0: 808d 0abc e221 ed3c e00b 78bb 3771 cbbc
000001b0: 7450 0bbc b664 a93c 8267 da3c 03c8 363d
000001c0: a01a cc3a 62bc 9a3c 957a 073d 80db a8bc
000001d0: e6c6 84bc 76b9 bb3c 34b5 4abc c498 683c
000001e0: 7277 b13c f028 fbbb 3428 67bc 69a9 3a3d
000001f0: 5248 a03c edd2 46bd 2b87 40bd 986d 06bc
00000200: 1705 f6bc 07fc 223d d131 173d f126 053d
00000210: a95c 283d 29ff 193d 6906 293d 00aa ea3a
00000220: 1158 313d 6655 883c 9a70 d13c ddd2 cbbc
00000230: 5ac0 b13c a6e5 2bbd c088 6d3a 6013 e4bc
00000240: 1085 993b 400b a73b 70e0 aebb dbb0 4b3d
00000250: b7cd 3dbd 135b 49bd 2031 553b d5c3 06bd
00000260: e6ec 07bd 2a2d f5bc 0900 253d 6e4b 02bd
00000270: dd76 28bd 77e4 123d c5b1 03bd 289e b7bb
00000280: 97e7 f6bc cc72 723c f184 303d f76c f7bc
00000290: 62d7 14bd d2b3 ab3c c0ae f8bc c640 9d3c
000002a0: 1aec fc3c 8915 1b3d f0e6 d23b f327 3c3d
000002b0: d8d9 5abc c21d e93c 3820 7ebc 0a73 ddbc
000002c0: 24f9 743c 4258 de3c 629c c03c 19dc 053d
000002d0: 80d6 83b9 62de a03c d11e 123d b8f7 0bbd
000002e0: 68d7 1ebc 8aac fd3c 145f 15bc 89dd 2c3d
000002f0: de1d be3c 8ad0 abbc dfa4 203d 7a9f 9fbc
00000300: 610e 053d 7fab 203d 9ac8 fd3c 15a0 1f3d
00000310: 686e 833b 2815 2ebd 7914 203d f071 9d3b
00000320: 805b a1bc 8069 fcbb 0751 f0bc 869a b73c
00000330: 4b0d 45bd 16e1 bd3c 0271 42bd 2039 c7bc
00000340: 01d1 0b3d 4097 fabb c993 0e3d 33a9 223d
00000350: 2068 80bc 00e2 3a3a ed81 1bbd 784f 79bc
00000360: 22c8 9d3c 4c5f 6dbc 4315 273d 7ec3 db3c
00000370: 49f3 023d 0148 203d 20ce 593b 00b0 feba
00000380: 4cbf 21bc bba9 3e3d adcb 0c3d 9230 1cbd
00000390: 6c68 653c 48fa 60bc 015d 2d3d a022 ecbc
000003a0: 927b 1fbd 6c9b 353c 4234 0cbd ed82 323d
000003b0: 2b82 3e3d 9e12 0fbd 6c57 0abc 30b8 d0bb
000003c0: 9f19 3ebd 6311 1bbd 67a6 3e3d 1fb8 163d
000003d0: e685 91bc 56d8 9b3c 54a5 32bc 805e ff3b
000003e0: b06e 5abb fae8 8f3c 7a84 dcbc 51ca 303d
000003f0: 0036 0ebc 91d6 493d 5d5e e3bc cc58 12bc

layer_2.bias f4 [300]
0.04086269 -0.038751196 0.01195503 0.032295022 0.030103568 -0.014788717 -0.04926796 0.003900338
-0.026520258 -0.0005091652 -0.00462066 -0.007405687 -0.0014456883 -0.009965379 0.04294243 0.041115116
0.049414944 0.00046640635 -0.009823583 0.038520765 -0.03289265 -0.03848343 0.04722662 -0.0038677044
-0.03385212 0.034279753 -0.0136219375 0.00992142 0.010756142 0.025284562 0.041440304 0.032956723
0.03966749 -0.026807522 0.0037121102 0.012728844 0.043212857 0.014703754 -0.011404701 0.013986718
0.038790163 0.019418556 0.013972003 0.018738348 -0.018093951 0.032934587 -0.009889185 0.030153874
-0.033043973 -0.043185066 0.023568008 0.047983278 0.024121273 -0.043341823 0.031072136 0.03869063
0.032298315 0.014367785 0.011188574 0.023073357 -0.037606012 -0.0053551197 0.010076623 -0.017432712
0.032971565 0.024978612 0.0094053745 -0.0029833019 -0.017303385 0.03262974 -0.006375473 -0.04542451
0.022046845 0.011232786 0.042187426 0.014346067 0.01675943 -0.03007834 -0.04869304 -0.0040635094
-0.033047847 0.03719001 -0.039074607 -0.021136928 0.028677303 -0.0103287175 -0.046825618 -0.040593725
0.0015407093 0.011005301 -0.013641886 -0.014436007 -0.03921006 -0.0020181164 -0.03454735 0.04820935
-0.035469253 -0.03565883 -0.02268045 0.03872181 0.036910754 0.042218138 -0.009270482 0.047476385
0.0004998632 0.03861333 -0.020290494 0.03640629 0.024699662 -0.034210682 0.017782513 0.049477022
-0.04900063 0.031842913 0.033897948 -0.015936844 0.023869555 -0.00044386834 -0.01325044 0.03224576
-0.021455592 -0.002588801 0.0036836043 0.01372901 -0.03876459 -0.047288246 0.02238277 0.01901478
-0.0065332055 -0.0013920963 0.027689438 -0.04417881 -0.0067828596 0.03371829 -0.0145248845 0.004628282
0.029702608 -0.020503033 0.029950399 -0.024207586 -0.010179024 0.011509784 0.038535487 -0.026633412
-0.034360576 -0.009495545 0.008335002 0.024908993 0.04769304 0.045355555 0.017155979 0.016690794
-0.0025796369 -0.0024525411 -0.022989964 -0.008004088 0.0296151 -0.025721246 -0.020713313 -0.035509646
-0.04448814 0.041383836 -0.01788488 -0.049740918 -0.027664918 -0.011428051 -0.028438186 -0.044958856
0.010529034 0.004587304 0.04239996 0.03165849 0.0032833293 0.03795171 -0.008780979 0.029580522
-0.02979759 -0.019771833 -0.040865034 -0.018259365 -0.022081984 0.04348143 0.009619892 0.04431962
0.0017277598 0.013464946 0.028551076 0.029292513 0.0020460412 0.042560812 -0.011575103 -0.01694569
-0.03927949 -0.024658168 0.037032153 -0.011580624 -0.03547281 -0.010684323 0.003698267 0.029816572
-0.04236793 -0.031963907 0.048858766 0.024674278 -0.028517265 0.016384695 0.0019031763 -0.0054237433
0.010803856 -0.018534422 -0.03372007 0.047002744 0.010820575 -0.046716698 0.03565571 0.015959147
0.029927466 -0.03670776 0.0118203685 0.0419052 -0.039542448 -0.023628289 0.043379154 0.0019353144
0.038680132 -0.048424173 0.0118479915 0.0017411821 -0.008288853 0.026118029 -0.0016339906 -0.021432942
-0.009313863 -0.016802289 0.00957479 -0.039009057 0.018050682 0.04425815 -0.02043122 0.026204232
0.016884733 -0.03942304 -0.011259586 -0.03932484 0.022305239 0.019913416 -0.028728647 -0.03608966
-0.02908793 -0.03452723 -0.035935838 -0.02578323 0.0013722181 -0.044382185 0.04592259 -0.021716833
00000000: a35f 273d 93b9 1ebd 08df 433c c947 043d
00000010: c29b f63c 604c 72bc 33cd 49bd d09c 7f3b
00000020: 0341 d9bc 8079 05ba e868 97bb 68ab f2bb
00000030: 407d bdba d445 23bc 67e4 2f3d 5368 283d
00000040: 5367 4a3d 0088 f439 18f3 20bc f3c7 1d3d
00000050: 72ba 06bd cda0 1dbd b370 413d 5079 7dbb
00000060: 85a8 0abd ed68 0c3d 8c2e 5fbc 748d 223c
00000070: 883a 303c 9221 cf3c 4fbd 293d a1fd 063d
00000080: 617a 223d 739b dbbc e046 733b a48c 503c
00000090: f7ff 303d 04e8 703c c8da 3abc 8c28 653c
000000a0: 6fe2 1e3d aa13 9f3c d4ea 643c 2a81 993c
000000b0: c439 94bc 6be6 063d 4006 22bc 4205 f73c
000000c0: 1e59 07bd d3e2 30bd b211 c13c 1d8a 443d
000000d0: fa99 c53c 3287 31bd fe8a fe3c 117a 1e3d
000000e0: 3d4b 043d dc66 6b3c 4850 373c 5604 bd3c
000000f0: c308 1abd 007a afbb 6c18 253c 0ccf 8ebc
00000100: 310d 073d f29f cc3c 0019 1a3c 8083 43bb
00000110: d4bf 8dbc c3a6 053d 58e9 d0bb 0d0f 3abd
00000120: 969b b43c b809 383c b9cc 2c3d c40b 6b3c
00000130: 124b 893c da66 f6bc 5a72 47bd 3027 85bb
00000140: 2e5d 07bd 8d54 183d b20c 20bd 5a27 adbc
00000150: aaec ea3c c839 29bc 38cc 3fbd 9b45 26bd
00000160: a0f1 c93a 944f 343c 3882 5fbc 0085 6cbc
00000170: ba9a 20bd 6042 04bb 8681 0dbd 2b77 453d
00000180: 3548 11bd fe0e 12bd 5acc b9bc c39a 1e3d
00000190: bb2f 173d edec 2c3d 38e3 17bc 9976 423d
000001a0: 4009 033a 0329 1e3d 4038 a6bc c31e 153d
000001b0: f256 ca3c 8020 0cbd a2ac 913c 6ba8 4a3d
000001c0: e2b4 48bd b76d 023d 93d8 0a3d fc8d 82bc
000001d0: 168a c33c 00b7 e8b9 6018 59bc 2114 043d
000001e0: a3c3 afbc e0a8 29bb a068 713b a4ef 603c
000001f0: 9ec7 1ebd 52b1 41bd 125c b73c e2c4 9b3c
00000200: 8014 d6bb 0077 b6ba f6d4 e23c d7f4 34bd
00000210: c042 debb 311c 0a3d c8f9 6dbc d8a8 973b
00000220: e252 f33c faf5 a7bc 8a5a f53c fd4e c6bc
00000230: ecc5 26bc 8893 3c3c 63d7 1d3d 502e dabc
00000240: adbd 0cbd 3493 1bbc 888f 083c f20d cc3c
00000250: c759 433d bfc6 393d b28a 8c3c 22bb 883c
00000260: 200f 29bb d0ba 20bb 7355 bcbc 9423 03bc
00000270: 5e9b f23c 5db5 d2bc f7ae a9bc 9072 11bd
00000280: 3239 36bd 1982 293d 5083 92bc 22bd 4bbd
00000290: 8aa1 e2bc b83c 3bbc 33f7 e8bc c726 38bd
000002a0: f881 2c3c 1851 963b 95ab 2d3d 55ac 013d
000002b0: 202d 573b 4173 1b3d 18de 0fbc da52 f23c
000002c0: 131a f4bc 8af8 a1bc 1862 27bd aa94 95bc
000002d0: 47e5 b4bc 9519 323d c09c 1d3c 7d88 353d
000002e0: 0076 e23a 149c 5c3c f2e3 e93c daf6 ef3c
000002f0: e016 063b 3f54 2e3d 80a5 3dbc b0d1 8abc
00000300: 88e3 20bd edff c9bc 07af 173d a8bc 3dbc
00000310: f04b 11bd 4c0d 2fbc a05e 723b e241 f43c
00000320: ff89 2dbd 96ec 02bd 2120 483d b621 ca3c
00000330: 0a9d e9bc 3239 863c 0074 f93a a8b9 b1bb
00000340: a802 313c 80d5 97bc 0e1e 0abd f385 403d
00000350: c848 313c 025a 3fbd b90b 123d c2bc 823c
00000360: 722a f53c e05a 16bd 38aa 413c c9a4 2b3d
00000370: 43f7 21bd 1d90 c1bc 57ae 313d 60aa fd3a
00000380: 0f6f 1e3d 6d58 46bd 141e 423c 6038 e43a
00000390: f8cd 07bc 7af5 d53c a02b d6ba 2394 afbc
000003a0: 2c99 18bc f4a4 89bc 94df 1c3c f6c7 1fbd
000003b0: 06df 933c 0948 353d 605f a7bc 42aa d63c
000003c0: da51 8a3c 0e7a 21bd 207a 38bc 1513 21bd
000003d0: 7ab9 b63c 7621 a33c 5758 ebbc c0d2 13bd
000003e0: d049 eebc 6d6c 0dbd 7531 13bd 5a37 d3bc
000003f0: 00dc b33a 18ca 35bd 5319 3c3d 80e7 b1bc

layer_3.weight f4 [8, 300]
-0.053265125 0.017061725 0.050513536 0.010591254 0.047042392 -0.03601664 0.0014107563 0.05188241
-0.019991003 -0.033857618 -0.018129226 0.012997963 0.053536184 -0.000935141 -0.02467398 -0.051970083
-0.054053728 -0.054980125 -0.03757426 -0.036429007 0.022001661 0.0319909 0.04009582 -0.01866367
0.04544308 -0.052710887 0.028547525 0.03563515 0.044765778 0.01885648 -0.032438662 0.024608433
-0.01717836 -0.05553859 0.055957824 0.015675105 0.022686422 -0.015507694 0.038518503 -0.041502796
-0.03160671 0.015512034 0.03598009 0.00025597587 0.041958854 -0.0063350387 0.004119642 -0.038197175
0.0062657893 0.05126936 0.04119835 0.04967156 0.035364456 -0.03994392 -0.013514474 -0.03907642
-0.03402752 0.04383824 -0.0563289 -0.04598367 0.03911034 0.038774937 -0.042966515 -0.055412088
0.030162297 0.044599056 -0.056420412 -0.026171878 0.039234616 0.0060671344 -0.04581877 0.007905357
-0.024252184 0.024626479 0.012776785 0.016298838 -0.0022264086 0.010882117 0.001453545 -0.044114657
-0.01726298 0.0527284 0.042712174 0.037491083 0.031498887 0.037528694 -0.050628673 -0.011650909
-0.03230717 0.015697837 -0.01467872 -0.03360354 -0.049706075 -0.050076474 -0.030925844 0.025238648
0.014315471 0.024923623 -0.022317383 0.0269882 0.036618166 0.0112199485 0.02532158 -0.049172994
0.029448733 -0.014162522 0.017209701 0.026885085 0.018987842 -0.026623884 -0.020198733 0.049817473
0.04860603 -0.010558687 0.015731163 -0.022601955 -0.031442992 -0.0062628724 -0.005806595 -0.007130049
-0.03784305 0.014183946 -0.05250863 -0.034072526 0.0366076 -0.0069644526 0.044685163 -0.0564225
-0.01608279 -0.051787347 -0.04968787 0.03151556 -0.05363842 -0.023439828 0.023853756 -0.05582251
0.055030696 -0.049340144 0.041665792 0.045888983 0.025098585 -0.024630912 0.049511433 -0.011780828
0.01995153 0.014097653 0.057711765 0.0038407035 0.016856514 -0.010178942 -0.05048093 -0.0006311983
-0.05381686 -0.023956269 -0.026199698 0.016683474 -0.030027334 -0.0019184425 0.035298884 0.012662403
-0.03805738 0.0060737655 0.009818979 -0.0011540726 -0.013504393 0.016399771 0.014534555 -0.050957654
-0.017328817 -0.04642518 -0.012696024 -0.032640073 -0.012091838 -0.035892334 -0.007899743 -0.012797892
0.01215364 -0.0035695322 0.056619212 -0.0054095425 -0.020095631 -0.045193296 0.013272293 0.02976349
-0.025446825 0.007466987 0.015491165 0.0054510385 -0.0524091 0.05550777 0.010809019 0.057431303
0.014773503 -0.02137477 -0.02530624 -0.007866949 -0.033009294 -0.034791056 0.01888588 0.05319012
0.035474494 0.023076646 -0.028304432 0.044844024 0.012843922 0.019106634 0.056645304 -0.010968804
-0.035651535 0.008559018 0.00032633543 0.04567474 -0.04862959 0.048819736 -0.038754344 0.0079378635
-0.036957905 -0.024597198 0.043729745 0.011859164 0.043717854 0.027780809 0.05671586 -0.038233787
0.035796076 -0.041993186 -0.03873211 -0.021060936 0.019782253 0.037713356 0.0035570748 -0.04320485
-0.023723122 0.011184461 0.027954303 -0.026463844 -0.03810382 0.02611857 0.005534552 0.034057282
0.008657426 0.008802593 0.0022180676 0.020971954 0.033743367 0.03385324 -0.0001752153 -0.03166384
0.045077212 0.013828538 0.034181915 0.04271829 0.048569612 0.031830244 0.004992105 -0.0020471811
00000000: 882c 5abd 08c5 8b3c 48e7 4e3d f086 2d3c
00000010: 86af 403d 2f86 13bd 20e9 b83a a682 543d
00000020: 2cc4 a3bc 49ae 0abd be83 94bc 68f5 543c
00000030: c248 5b3d 4024 75ba 1621 cabc 95de 54bd
00000040: 7167 5dbd d732 61bd 78e7 19bd 9536 15bd
00000050: d43c b43c e408 033d 843b 243d 8ee4 98bc
00000060: 8622 3a3d 5fe7 57bd 80dc e93c 2af6 113d
00000070: 525c 373d e878 9a3c 67de 04bd a097 c93c
00000080: a2b9 8cbc 6f7c 63bd 0834 653d 1469 803c
00000090: e0d8 b93c fc13 7ebc 94c5 1d3d d6fe 29bd
000000a0: 0a76 01bd 3026 7e3c dc5f 133d 8034 8639
000000b0: 0cdd 2b3d 2896 cfbb 10fe 863b a474 1cbd
000000c0: 4051 cd3b d2ff 513d 9abf 283d 6874 4b3d
000000d0: 52da 103d 3c9c 23bd d06b 5dbc 990e 20bd
000000e0: 7160 0bbd ba8f 333d 22b9 66bd 5f59 3cbd
000000f0: 2a32 203d 78d2 1e3d a8fd 2fbd c9f7 62bd
00000100: ec16 f73c 80ad 363d 1719 67bd 6866 d6bc
00000110: 7ab4 203d d0ce c63b 76ac 3bbd 7885 013c
00000120: 84ac c6bc 78bd c93c b855 513c 2485 853c
00000130: f0e8 11bb e84a 323c e084 be3a 92b1 34bd
00000140: 186b 8dbc bcf9 573d f6f2 2e3d 4090 193d
00000150: fa04 013d b0b7 193d 0360 4fbd 74e3 3ebc
00000160: 8654 04bd c098 803c 047f 70bc dea3 09bd
00000170: 9998 4bbd fd1c 4dbd 3258 fdbc 48c1 ce3c
00000180: 708b 6a3c a02c cc3c f2d2 b6bc 5c16 dd3c
00000190: eefc 153d e0d3 373c 346f cf3c 9f69 49bd
000001a0: 783e f13c ec09 68bc 5cfb 8c3c 1c3e dc3c
000001b0: 648c 9b3c 551a dabc d077 a5bc 680d 4c3d
000001c0: 1e17 473d 58fe 2cbc a4de 803c bc27 b9bc
000001d0: 5eca 00bd c838 cdbb 4045 bebb 30a3 e9bb
000001e0: 5001 1bbd c863 683c 4a13 57bd a28f 0bbd
000001f0: daf1 153d 1036 e4bb ca07 373d 481b 67bd
00000200: 0ec0 83bc f81e 54bd 8285 4bbd 7616 013d
00000210: f6b3 5bbd e204 c0bc f468 c33c 25a6 64bd
00000220: de67 613d e418 4abd c0a9 2a3d 16f6 3b3d
00000230: 8c9b cd3c c4c6 c9bc 80cc 4a3d 6004 41bc
00000240: 6471 a33c d8f9 663c 2c63 6c3d 50b4 7b3b
00000250: ac16 8a3c 94c5 26bc 17c5 4ebd 0077 25ba
00000260: 116f 5cbd f03f c4bc c0a0 d6bc c8ab 883c
00000270: e2fb f5bc 4074 fbba 9095 103d f875 4f3c
00000280: 0ee2 1bbd 7006 c73b c8df 203c 4044 97ba
00000290: 8841 5dbc d058 863c 5822 6e3c f9b8 50bd
000002a0: 2af5 8dbc 5428 3ebd fc02 50bc 99b1 05bd
000002b0: d81c 46bc d703 13bd ec6d 01bc 40ae 51bc
000002c0: 1020 473c d0ee 69bb 8ce9 673d 8842 b1bb
000002d0: 989f a4bc 9b1c 39bd 0874 593c 90d2 f33c
000002e0: dc75 d0bc a0ad f43b a8ce 7d3c a09e b23b
000002f0: edaa 56bd 1e5c 633d 5018 313c 163d 6b3d
00000300: 900c 723c 241a afbc 084f cfbc 60e4 00bc
00000310: c134 07bd 1181 0ebd 90b6 9a3c e2dd 593d
00000320: b44d 113d 3c0b bd3c b2de e7bc 5eae 373d
00000330: 506f 523c 8485 9c3c e804 683d 80b6 33bc
00000340: 5807 12bd 203b 0c3c 0018 ab39 7015 3b3d
00000350: d22f 47bd 34f7 473d e0bc 1ebd d00d 023c
00000360: 2c61 17bd 1080 c9bc f61d 333d f04c 423c
00000370: 7e11 333d 9494 e33c e44e 683d 089b 1cbd
00000380: e89e 123d 0c01 2cbd 90a5 1ebd fc87 acbc
00000390: 640e a23c 5279 1a3d d01d 693b 92f7 30bd
000003a0: fe56 c2bc 083f 373c 6c00 e53c b4ca d8bc
000003b0: c012 1cbd 9cf6 d53c 305b b53b a67f 0b3d
000003c0: e0d7 0d3c c038 103c 005d 113b 60cd ab3c
000003d0: 7c36 0a3d b2a9 0a3d 00ba 37b9 f1b1 01bd
000003e0: e2a2 383d 1891 623c 5602 0c3d 60f9 2e3d
000003f0: eef0 463d 6e60 023d d094 a33b 002a 06bb

layer_3.bias f4 [8]
-0.017731477 0.03439127 0.007095441 -0.022247456 0.0067384914 -0.023552958 -0.035874076 0.053932674
00000000: 9a41 91bc dcdd 0c3d e080 e83b 4c40 b6bc
00000010: 90ce dc3b 22f2 c0bc b2f0 12bd 82e8 5c3d
