Endgame/pytorch_models/TD3_CarApp_0_actor.pth (torch_old, 537933 bytes, 27 tensors)

convblock1.0.weight f4 [8, 1, 3, 3]
000000 83 69 1d 3d f8 2d a5 3e 10 e0 86 be 72 67 03 bf
       0.038430702 0.32261634 -0.2634282 -0.5132972
000010 5a f1 e3 bd 14 ed 80 3d d2 51 98 be df 73 d7 3d
       -0.111300185 0.06295219 -0.29749924 0.105201475
000020 87 5b 69 be 57 a2 f9 3e eb 4d dc b9 05 75 55 be
       -0.22788821 0.48756668 -0.00042019723 -0.2084542
000030 eb 3a 08 be 20 93 70 be 5b d2 3d be 9d 09 79 3d
       -0.13303725 -0.23493624 -0.18537275 0.060800184
000040 cf 0b da 3d 27 aa c2 3d 4b c4 90 be 5b 87 d0 ba
       0.106467836 0.0950511 -0.2827476 -0.001590948
000050 55 8f 08 3f 8a b5 ec 3d f7 eb 8e bd 0e 2b df 3e
       0.5334371 0.11558063 -0.069786005 0.43587536
000060 9f 1a 7e be d6 56 bd bd 81 22 9c 3c d1 3f ae be
       -0.24814843 -0.09245078 0.019059421 -0.34033063
000070 99 38 74 be 26 db e5 bd 04 5e 4a be da 4a 83 3e
       -0.23849715 -0.1122344 -0.19762427 0.25643045
000080 ab 28 84 be ab 96 1c be c5 19 85 be fa d6 9f be
       -0.25812277 -0.1529185 -0.25996223 -0.31218702
000090 4d 05 d7 3d 43 68 f4 3e d6 a9 c7 3d e5 51 29 3e
       0.10499058 0.47735795 0.097491905 0.16535147
0000a0 5c e5 a0 ba 41 5e 6e be cc 94 81 bc c9 10 e5 be
       -0.0012275386 -0.23278143 -0.015818022 -0.4473937
0000b0 fc ac 0e bf f4 ec 61 be 52 52 ba 3e fb 43 0c 3f
       -0.55732703 -0.22063047 0.3639093 0.5479123
0000c0 7e 66 9d be 5e 78 36 3d 05 93 08 3e ed a0 ce 3d
       -0.30742258 0.044548385 0.13337334 0.10089288
0000d0 bf 70 d6 3c 89 5f 8b be 0a d1 9f 3e 89 28 2f be
       0.026176808 -0.27221325 0.31214172 -0.17105307
0000e0 ca 1e 53 be 0b 3a a2 be a0 3d 81 be f4 a6 34 be
       -0.20617214 -0.31684908 -0.2524233 -0.17641813
0000f0 3c 88 2a bd a5 be e8 3c 77 6a 9f be 01 97 17 3f
       -0.04163383 0.028411219 -0.31135914 0.5921479
000100 10 80 f0 3e 76 8f 94 bd 1e d5 20 3c 49 dd 4f 3e
       0.46972704 -0.072539255 0.009816436 0.20299257
000110 bf e9 00 3e ba ff 0d 3e 6f a7 68 be 9e 54 89 bd
       0.12589167 0.13867083 -0.22720121 -0.067055926

convblock1.2.weight f4 [8]
000000 9c 0f 6c 3f 84 9b 78 3f 56 03 8c 3f 10 ae 72 3f
       0.9221132 0.971123 1.0938518 0.9479685
000010 53 ac 9e 3f f7 89 7f 3f 2d 05 84 3f 82 3d 93 3f
       1.2396339 0.9981989 1.031408 1.1503146

convblock1.2.bias f4 [8]
000000 b1 6c 47 be 01 b6 27 bd 9a 6d 49 3d 82 9c d3 3d
       -0.19475056 -0.040945057 0.04917679 0.10332586
000010 4b 0b 3f be 68 ef e5 3d c6 f7 49 bd d0 69 c0 3c
       -0.18656652 0.11227304 -0.04930856 0.023487955

convblock1.2.running_mean f4 [8]
000000 91 a3 9b 3a 8d 86 f4 3c ea f4 93 3e 04 00 00 00
       0.0011874308 0.029849315 0.28897792 6e-45
000010 e2 05 e1 3c b8 90 8f 3e 9c b2 53 3a 34 72 3a 3f
       0.027468625 0.280401 0.0008075626 0.7283051

convblock1.2.running_var f4 [8]
000000 99 6f 02 39 7c 7a f7 3b 98 3b 7e 3d 04 00 00 00
       0.0001243934 0.007552443 0.06206855 6e-45
000010 eb 07 15 3c a1 a6 4e 3d b8 b1 bf 38 a2 24 91 3e
       0.009096126 0.05045188 9.1406924e-05 0.2834826

convblock2.0.weight f4 [10, 8, 3, 3]
000000 d4 ba 26 bd 9c 9a ba 3c a4 1c b3 3d 8f a7 88 3e
       -0.040705517 0.022778802 0.08745697 0.26690337
000010 67 97 78 bd 74 fe a2 be 8c 09 3c bd cb 39 d7 bd
       -0.060691264 -0.31834757 -0.045907542 -0.1050907
000020 43 01 c6 bc d2 55 07 3f e7 84 ed 3e b0 be 9c 3e
       -0.024170524 0.52865326 0.4639046 0.30614233
000030 7a 61 3b 3e 4d 8b 40 3e df 73 23 be b7 e4 6f 3d
       0.18298903 0.18803139 -0.1596217 0.05856773
000040 c2 2b 84 3e da c5 66 be 85 8a 87 bd cc 2e 4e be
       0.25814635 -0.22536412 -0.066182174 -0.20135039
000050 2c 95 1f 3c d9 81 02 be a0 3e bf be 93 c6 f8 bd
       0.009740155 -0.12744845 -0.37352467 -0.1214725
000060 aa b1 d2 bd 3e c4 2f be fd f1 38 bd 85 59 68 3d
       -0.10287793 -0.17164704 -0.045152653 0.056725997
000070 c9 6b 71 3e 8f 12 51 3e 5b 50 96 3d d9 97 c2 3d
       0.23576273 0.20417236 0.07339545 0.09501619
000080 94 51 4b 3c 13 41 fb 3d 1a 27 13 3d ee b9 0a 3d
       0.012409586 0.12268271 0.035925962 0.033868723
000090 d4 b1 7b 3e b3 02 17 3e 93 9c 2e be 05 e0 b3 3d
       0.24579555 0.14747123 -0.17051916 0.08782963
0000a0 25 0b 59 be 9b 3c 8f bd 81 93 be bc 84 ba 9a be
       -0.21195658 -0.069939815 -0.023263695 -0.30220425
0000b0 44 01 b2 3d 48 38 8a 3d 66 a1 b9 bd 22 40 d8 bd
       0.08691648 0.06749016 -0.090639874 -0.10559107
0000c0 32 be a2 3d 4c 3c b7 bd 01 dd 38 be 85 0c 82 3d
       0.07946433 -0.089470476 -0.18053056 0.06350044
0000d0 31 6f c7 bd c0 9f f4 bd 46 f5 fe 3c fc fd 11 3e
       -0.09738005 -0.119445324 0.031122815 0.14257044
0000e0 fc 1d 08 3e 37 f6 59 3e 21 01 1f 3e fb 51 24 3d
       0.13292688 0.2128533 0.15527774 0.040117245
0000f0 ea e7 68 3e 22 00 7e 3d 68 02 27 bd 50 ee c2 3e
       0.22744718 0.062011845 -0.04077378 0.38072443
000100 6a 12 2d 3e a9 16 d8 bd 93 a6 81 3e 68 74 dc bc
       0.16901556 -0.10551197 0.253224 -0.026910976
000110 8d 12 a5 bd 6c 9c f6 3d 18 f1 0b be 31 6a 99 be
       -0.08060179 0.12041554 -0.13666189 -0.2996383
000120 1f f4 63 be e4 ab 83 be 22 2a 48 3e 20 02 fc be
       -0.22261094 -0.2571708 0.19547322 -0.4922037
000130 cf 46 f7 bd 43 9d 5c be 8d 9a d5 be 13 e6 57 3c
       -0.120740525 -0.21544366 -0.41719475 0.013177413
000140 9f 8f 2e be 43 af af 3d 5c 05 09 bd 51 1f a7 bd
       -0.17046975 0.085783504 -0.033452377 -0.0816027
000150 b9 fa b9 bd 71 84 a8 3d d9 7e ce 3b f6 54 63 bd
       -0.09081025 0.08228386 0.0063017425 -0.055500947
000160 d6 9d 7b 3d a2 19 0e be fd 2f cd be d1 2c bf be
       0.06142982 -0.13876966 -0.40075675 -0.3733888
000170 f5 5f fd bd 8f 1c a5 bd 4d e4 7f be 28 4f 0d 3d
       -0.12371818 -0.08062088 -0.24989434 0.034499317
000180 c1 64 a8 bd a8 45 81 bd 8f d7 1e 3e 3c 9b 1d 3e
       -0.08222342 -0.06312114 0.15511917 0.15391248
000190 5f bf 9d 3e 72 75 7a 3e 05 db c3 3d 73 98 8d 3e
       0.30810067 0.24458864 0.09563259 0.27655372
0001a0 6e f6 40 3e f0 f6 18 3e 99 8d 97 3e df 61 da 3d
       0.18844005 0.14937949 0.29600218 0.10663199
0001b0 3a e7 bf be a3 54 4e bd db a7 e2 3d 03 e5 4a be
       -0.374811 -0.050373685 0.11067172 -0.19813924
0001c0 0f ae 9b 3c 5c bc 48 3d 67 23 6c be 56 02 15 3e
       0.019003896 0.04900776 -0.2306038 0.14551672
0001d0 30 89 3d be af 11 bd bd 84 f4 a1 3c c9 f1 7b bd
       -0.18509364 -0.092318885 0.019769914 -0.06150988
0001e0 54 34 57 be 69 c9 3e be 7d bc 2b be 59 f8 86 3d
       -0.21016055 -0.1863152 -0.16771121 0.06590337
0001f0 1d ab dd bd 5e de 84 3d 73 54 5d bd 04 18 14 bd
       -0.10823653 0.06487726 -0.054035615 -0.036155716
000200 05 88 81 bd 5a c6 41 be 56 f7 d0 be 1e 75 81 bd
       -0.06324772 -0.18923321 -0.40813702 -0.063211665
000210 b1 d7 20 bf 28 bd 70 be 96 f2 88 be f7 d8 e2 3c
       -0.6282912 -0.23509657 -0.26747578 0.027691348
000220 7e 76 62 be 0c b1 c5 be 97 db d6 bb 43 a1 5f be
       -0.22115514 -0.3861164 -0.006556939 -0.2183886
000230 aa 00 91 be f1 5e 10 3e 7e e9 08 3e e6 76 8a be
       -0.2832082 0.14098717 0.1337032 -0.27043837
000240 b0 71 2b be 48 f9 1c be 38 f4 ab be c9 b9 ee bd
       -0.16742587 -0.15329468 -0.33584762 -0.116565295
000250 ac 69 b7 bd fb fe 03 3e bf c6 ec bd 79 f1 eb 3c
       -0.08955702 0.12890236 -0.11561345 0.028801667
000260 9a 65 14 be 58 47 a2 be 0c 43 ca be f5 74 da bd
       -0.14491883 -0.31695056 -0.39504278 -0.10666839
000270 05 46 41 be ad f3 93 bc ce 26 18 3e 10 b5 40 bd
       -0.18874367 -0.01806053 0.14858553 -0.047047675
000280 5e 0d 1f be d3 c1 77 3e 51 a9 f9 bd d2 cd bb be
       -0.15532443 0.24195032 -0.12190498 -0.36680466
000290 43 05 f7 bd 37 44 1f be 33 9b 4d be f2 60 9b bd
       -0.120615505 -0.15553366 -0.20078735 -0.0758685
0002a0 44 85 c9 3d e7 3e 22 3e cd 7a 3f bd b3 67 1f 3e
       0.098398715 0.15844308 -0.04674797 0.15566902
0002b0 b9 29 5d 3e 56 5a 2a 3d 52 65 76 3e db 50 6d 3d
       0.21597947 0.041590057 0.24062088 0.057938438
0002c0 19 f9 20 3e d7 b4 0a 3e c4 ad be 3d 5f 04 2f 3e
       0.15720023 0.13545547 0.09310487 0.17091511
0002d0 89 04 dd be e2 2c 5d be 27 42 f8 bd 1e 89 ee be
       -0.43167523 -0.21599153 -0.121219926 -0.46588987
0002e0 f9 86 16 bf 04 db 8f 3d cd 5b ff be 6d 4f b0 be
       -0.587997 0.07024196 -0.49874726 -0.34435597
0002f0 9d ce fc bd 9d 3c 17 be 6c 5c 8f be 91 56 23 be
       -0.12344096 -0.14769216 -0.280002 -0.15950991
000300 7f c8 d7 bc 09 42 83 be 82 ee 21 be c9 6c 1f 3d
       -0.026340721 -0.25636318 -0.1581364 0.038922105
000310 99 1e ad 3d f0 17 47 3d 62 61 9d 3d 0e 6b ba 3d
       0.08453102 0.048606813 0.0768459 0.0910245
000320 ab ae b2 be 0d b3 b0 be 7d 31 80 be 0d 01 d8 3c
       -0.34898886 -0.34511605 -0.25037757 0.026367689
000330 cd 74 a1 be c7 48 1b bd 7b c3 6c 3d 9b 5f df bd
       -0.31534424 -0.037911203 0.057803612 -0.10906907
000340 bb 2d d8 3b 0d 53 a2 be 4a 5d 69 be d3 04 18 3e
       0.0065972484 -0.31703988 -0.22789493 0.1484559
000350 41 fa 95 bd 83 3c 11 3e 94 c6 8f 3d bd e2 8b 3c
       -0.07323123 0.1418324 0.07020298 0.01707589
000360 60 b2 04 3e ac 9f 00 3c fc c6 ac bd a7 76 bd 3e
       0.1295867 0.007850569 -0.08436391 0.37004587
000370 a0 c0 d8 3d f0 c6 03 be 8c 11 01 3e 4a 92 1d 3e
       0.10583615 -0.12868857 0.1260435 0.15387836
000380 3a 1a b3 3e 26 dd 0c 3e f7 84 1b 3e b4 fc 1f 3d
       0.34980947 0.13756236 0.15187441 0.039059356
000390 14 5b b3 3d 0d 1c 6f 3d 95 c9 e5 bd 66 51 f0 3d
       0.08757606 0.05837636 -0.11220089 0.117342755
0003a0 48 0c 94 3d 2a fb e6 bd 86 4e 64 3c 29 ad 1e 3e
       0.07228905 -0.112783745 0.013934737 0.15495743
0003b0 36 92 0d 3e 79 2c 4b bd ec 85 1c bd 85 f7 78 3d
       0.13825306 -0.04960296 -0.038213655 0.060782928
0003c0 7b 46 73 be df 28 22 be fd 14 00 3e 37 8a 8b bd
       -0.23757355 -0.15835904 0.12508006 -0.06813472
0003d0 4d 0e 55 be 62 dc 14 be 11 32 c8 bd 43 8a 0c be
       -0.20806237 -0.14537194 -0.097751744 -0.13724618
0003e0 0d 1d 0c be b6 07 07 be b7 f5 74 be e4 bc 0c be
       -0.13682957 -0.13186535 -0.23921858 -0.13743931
0003f0 8e 26 df 3e 9a 8e b6 bd 0e d7 a6 bd bc 8c ba 3e
       0.43584102 -0.08913918 -0.08146487 0.36435497

convblock2.2.weight f4 [10]
000000 05 7d 6c 3f 09 ac 8f 3f 0c c2 6b 3f f2 bd 84 3f
       0.92378265 1.1224376 0.9209297 1.0370467
000010 d0 45 94 3f a2 ab 89 3f 8b 9a 96 3f 25 36 60 3f
       1.1583805 1.0755503 1.1765913 0.8758262
000020 34 86 7c 3f 3b cd 96 3f
       0.9864228 1.1781381

convblock2.2.bias f4 [10]
000000 dc b5 31 3c 2f 8d 5c 3e 28 68 1e 3e 11 e4 6a be
       0.010846581 0.21538232 0.1546942 -0.22938563
000010 81 0f 7f bc ec b4 6f 3e 30 47 b0 3c 2b c6 b3 3d
       -0.015567661 0.2340886 0.02151832 0.08778032
000020 d7 ce 52 3e 48 da 7d bd
       0.20586716 -0.061975747

convblock2.2.running_mean f4 [10]
000000 31 c8 a2 3f 4f 43 e1 3f 59 31 e5 3f ef 32 2c 3f
       1.2717344 1.7598666 1.7905685 0.6726522
000010 81 f8 a3 3f cf 9c 0b 40 f9 ff 9a 3f b1 de ee 3f
       1.2810212 2.1814458 1.2109367 1.866171
000020 38 3b c9 3f ef c6 c5 3f
       1.5721197 1.5451335

convblock2.2.running_var f4 [10]
000000 6f 39 cf 40 9a b1 af 40 82 9a 4d 40 1f 44 72 40
       6.475761 5.49043 3.2125554 3.7854078
000010 d5 07 6d 40 8e 66 8d 40 47 d5 fc 3f cb e5 d0 40
       3.703603 4.418769 1.9752587 6.528051
000020 9a 70 89 40 87 0c 1b 40
       4.2949953 2.4226396

convblock3.0.weight f4 [8, 10, 1, 1]
000000 29 46 88 3e f1 18 9a 3e e2 99 a6 bd c7 d2 9a be
       0.26616028 0.30097154 -0.081348196 -0.30238935
000010 e9 db 07 bf 0e 77 13 bf a9 e6 22 be 96 19 06 be
       -0.5306993 -0.5760354 -0.15908302 -0.13095698
000020 f9 d9 76 3e 79 3e e2 be 04 a4 a2 3e 91 db f6 be
       0.24106587 -0.44188288 0.3176576 -0.4821439
000030 f3 5f 7e be 96 49 b0 3e ec c7 ab 3e e2 88 8c be
       -0.24841289 0.34431142 0.33550966 -0.27448183
000040 8c 91 ac 3d 67 74 38 3e 81 50 8c 3c f8 1c 5c bd
       0.08426198 0.18013154 0.017128231 -0.053738564
000050 64 8d 5b 3e cd 37 45 be 7e 19 46 be f1 b4 49 3e
       0.21440655 -0.19259568 -0.19345662 0.1969793
000060 59 77 a1 be 8b 8e f4 3d 5b 30 8d bd 80 61 59 3e
       -0.31536368 0.119412504 -0.06893989 0.212286
000070 29 1e bd 3e 1d 59 9d be 2a 5c e4 3d 37 7c 4f be
       0.36937073 -0.3073205 0.111503914 -0.20262228
000080 79 5d 7c bd 20 f0 06 3e 7d 77 54 be f1 8f b6 bd
       -0.06161258 0.13177538 -0.20748706 -0.089141734
000090 8b 56 b4 3e b2 9d 22 3e 5e bf 13 3e 2f 90 a9 bd
       0.35222277 0.15880468 0.1442847 -0.08279454
0000a0 c8 cf 01 bd 68 42 3a be f5 fc c9 be 98 8c 34 3e
       -0.031692296 -0.18189394 -0.39450803 0.17631757
0000b0 dd c8 89 be 7d 3d 19 be d2 9f b6 be 65 c7 d4 3d
       -0.2691106 -0.14964862 -0.35668808 0.10389594
0000c0 9e 71 25 be 07 80 83 3e 8d 97 38 be 7f 30 f7 bd
       -0.16156623 0.25683615 -0.18026562 -0.12069797
0000d0 e5 f0 53 bd 11 1e 94 bd 4f b5 5d 3e e6 da 8d 3d
       -0.051743407 -0.07232297 0.21651195 0.06926517
0000e0 63 c4 5f 3e 06 c1 c0 bd 9f 78 46 be 6c 18 82 3e
       0.2185226 -0.09411816 -0.19381951 0.25409257
0000f0 89 7b 06 bd 3a ac 62 be c3 cf 4d bc 82 a7 ab bc
       -0.032832656 -0.22136012 -0.012561741 -0.020953897
000100 11 50 79 3e ee 56 81 bd f4 ed db 3e 5c 15 53 be
       0.24346949 -0.06315409 0.4295498 -0.20613617
000110 f3 ee 0b 3e f4 21 34 3e 8b c9 34 be 1e 7d fd 3d
       0.1366537 0.17591077 -0.17655008 0.1237738
000120 e7 4d 95 3e 96 9c 11 bf 91 d3 7b bd 70 b4 e9 be
       0.29160997 -0.56879556 -0.061481062 -0.45645475
000130 2f f2 54 be 06 d2 54 3e cc 74 55 3e 8a 3d cd be
       -0.2079551 0.20783243 0.20845336 -0.40086013

convblock4.0.weight f4 [10, 8, 3, 3]
000000 d2 e3 25 bf d2 fb 5d be ba cb b2 3d b6 6d 25 be
       -0.6480075 -0.21678093 0.08730264 -0.16155133
000010 0a 64 46 3e c7 cd cf 3e 18 26 b9 bd 9f 85 06 3e
       0.193741 0.40586683 -0.09040469 0.1313691
000020 55 60 16 3e 83 0a 46 bc ac fb 4f bb 2b a1 18 3e
       0.14685185 -0.012087467 -0.0031735701 0.1490523
000030 7a d2 ab 3e 13 79 0c 3e 64 d2 98 bc 96 25 01 3e
       0.33559018 0.13718061 -0.01865501 0.12611994
000040 77 0a 3b bd 3d 17 20 bc 36 3b 2c bd 3b d4 7f 3e
       -0.045664277 -0.009771165 -0.042048655 0.24983303
000050 b2 cd 6e 3e dd 1b 56 3e a3 b6 ff 3d cc 55 82 3e
       0.23320654 0.20909066 0.12486007 0.25456083
000060 87 90 e6 3b 2a 05 93 bb f8 99 63 3d bd c9 fa bd
       0.007036272 -0.0044866996 0.055566758 -0.1224551
000070 bb 7a c7 3d 25 4d 16 3e df 3e 3a 3e 85 91 19 3e
       0.09740206 0.14677866 0.18188046 0.14996918
000080 30 77 43 3e c0 58 d1 3c c3 06 24 be c3 65 ca bd
       0.19088435 0.025555015 -0.16018204 -0.09882691
000090 c7 0e cc bc 62 98 37 3d 33 34 a3 3e 50 90 4a 3e
       -0.02490939 0.044823058 0.31875762 0.19781613
0000a0 59 12 48 3e 4b e6 a6 3e 01 f0 52 3e 28 3e cc 3c
       0.19538249 0.32597575 0.20599367 0.024931982
0000b0 11 1e 2e bc b2 1d 92 3d 55 30 69 3e 9b 6f 19 be
       -0.010627286 0.0713457 0.22772343 -0.1498398
0000c0 39 ab 0b 3e 95 6a b1 bd 6a 6f bc be fa bb b0 bd
       0.13639535 -0.08662907 -0.36803752 -0.08629604
0000d0 87 b4 6c bd da 0b 54 be c1 87 82 3c be 9e 90 bd
       -0.05778935 -0.20707646 0.015933873 -0.07061528
0000e0 7c ce 88 be 9c a7 e1 bc d8 63 e9 3d e2 d9 04 bf
       -0.26720035 -0.027545743 0.11395997 -0.5189496
0000f0 e8 57 9f be 32 ce 2f bd cf e4 03 be cb 46 ed be
       -0.31121755 -0.042921253 -0.12880252 -0.46343073
000100 f7 7b 62 be 4b af f8 bd a8 a4 28 be 26 92 1d be
       -0.22117601 -0.121428095 -0.16469061 -0.15387782
000110 1c 25 85 3e f1 97 0d be e9 db ae 3b e1 be 06 3e
       0.26004875 -0.13827492 0.005336274 0.13158752
000120 9b ca 00 be 0f 1f 88 bd d3 da 0c be 5d 6b 2a be
       -0.12577288 -0.06646549 -0.1375535 -0.16642518
000130 35 6a 45 bd df f2 1f be 0c 6b 11 be 53 12 d6 bd
       -0.04819699 -0.15619992 -0.14200991 -0.10452714
000140 68 20 90 be 59 16 14 be 21 42 3e 3c b2 10 62 bc
       -0.28149724 -0.1446165 0.011612446 -0.013797926
000150 6e 2c ab bc 96 b0 d3 bd 04 f2 52 bc 8a e9 8f bc
       -0.02089521 -0.103364155 -0.012875084 -0.017567415
000160 ef e1 02 be 76 f6 c2 bd 21 15 27 bd fa ed 56 be
       -0.127815 -0.09519665 -0.040791634 -0.20989218
000170 45 b8 49 be 20 7c 9c bd 51 af f1 bc a8 89 26 be
       -0.196992 -0.076408625 -0.029502543 -0.16263449
000180 ea e3 8e bd 49 7b 0d bc fb e9 70 bd 85 12 97 bc
       -0.06977065 -0.0086353505 -0.05881689 -0.018441448
000190 48 db c2 3d 69 0c b3 3d 47 43 bf bd 53 16 b4 bc
       0.09514481 0.087426014 -0.09339004 -0.021983301
0001a0 10 dd 9b 3c 00 39 af 3d 9f 63 24 be ec 4d c2 bc
       0.01902631 0.08555794 -0.16053627 -0.023718797
0001b0 5a a3 d9 bd 57 5d 21 be 02 8c e6 bc 19 c3 dc bd
       -0.1062686 -0.15758263 -0.028142933 -0.107793994
0001c0 35 94 1e bd 0a ec 05 be 45 8f 22 be b1 66 6d bc
       -0.03871556 -0.13078323 -0.15874965 -0.014489816
0001d0 3a 09 20 be 76 fe 64 3c 99 93 a4 bc 73 a7 e0 3c
       -0.1562852 0.013976684 -0.020089911 0.027423596
0001e0 bf b1 30 3b 1d fb 87 bd c1 8b 83 3c e1 fb 25 bc
       0.0026961414 -0.06639693 0.01605785 -0.010130853
0001f0 39 45 f6 bc 6b cc 9c bd a3 3f 87 bd c1 ac ca bd
       -0.030062305 -0.07656177 -0.066039346 -0.098962314
000200 44 d8 b8 bd 54 b5 35 be ff bf 8f bd 43 b9 80 be
       -0.090256244 -0.17744952 -0.07019042 -0.25141343
000210 47 ae d7 bd f0 70 ee bc 41 56 29 be b1 a1 2b be
       -0.10531288 -0.029106587 -0.1653681 -0.16760899
000220 a9 2a e5 bd e8 10 00 be bc 5f 91 bd 3f bc 94 bd
       -0.111897774 -0.12506449 -0.07098338 -0.072624676
000230 b3 81 bb 3c 5e f8 1e be 27 84 64 bd f5 48 62 3d
       0.022888994 -0.15524432 -0.055790093 0.05524536
000240 97 e5 b7 3e 1d 9e 5d 3e 0b c1 e2 bd d1 cc 91 3e
       0.3591735 0.21642347 -0.11071976 0.28476575
000250 f1 84 9d 3e 86 9b ee bd 64 af e0 3d 1e 0f e6 3d
       0.3076549 -0.116507575 0.10970953 0.11233352
000260 aa 5e d1 3b 9d 49 22 bf a9 ea ba bd 65 f4 4d 3e
       0.0063894587 -0.63393575 -0.09126789 0.2011276
000270 93 76 10 bf 34 05 96 bd e6 06 33 3e 09 bb 4c be
       -0.5643093 -0.07325211 0.174831 -0.19993223
000280 46 9e 0b be 61 ef 48 bb d0 da a1 be 83 aa eb 3d
       -0.13634595 -0.003066026 -0.31612253 0.11507132
000290 48 90 fb bd ae 7f 17 be fd fa 0c be 06 5e 10 3d
       -0.12283379 -0.147948 -0.1376762 0.035245918
0002a0 bb f9 c1 bd 4f 45 13 3e b0 7c 66 3d 4e 12 e6 be
       -0.094714604 0.14381908 0.056271255 -0.4493584
0002b0 c1 29 bb bd 31 b5 87 3d 8e 07 88 ba e6 18 1e be
       -0.09138823 0.066263564 -0.0010378228 -0.15439186
0002c0 bb ac e7 bd b3 af e2 3d 78 fc 2c be 0d 8d 39 bd
       -0.113122426 0.11068668 -0.16893184 -0.045300532
0002d0 f8 e9 c5 be 6a 1e 9c 3e 65 d3 0d 3e ec b5 ea be
       -0.38655066 0.30491954 0.13850172 -0.4584192
0002e0 cd 9e e2 3c 94 c2 a5 3d cc 2d 29 be ec 9d 88 be
       0.027663613 0.080937535 -0.16521376 -0.26682985
0002f0 a3 31 8b bd c4 a6 86 bd be 5f f9 bd 41 47 34 3e
       -0.06796577 -0.06574777 -0.121764645 0.17605306
000300 d9 a9 e0 be 4e 2d 27 be 52 a0 08 bc 37 27 80 be
       -0.43879583 -0.16325876 -0.008339005 -0.2502992
000310 2f 86 1d 3b 89 3c f0 bc 2e 83 4a bd 22 c3 2e be
       0.0024036278 -0.02932574 -0.04944151 -0.17066625
000320 93 99 54 3e 19 3d 73 be 4b da aa 3a 78 7e 6e bd
       0.20761709 -0.23753776 0.0013035027 -0.05822608
000330 1f 3e ff bd 43 53 a7 bd a8 97 00 3d 97 74 c2 3e
       -0.124630205 -0.08170178 0.03139463 0.37979576
000340 3b 96 a8 3e 1e 01 e1 bd 82 d0 dd 3e 0f 34 96 3e
       0.32927117 -0.10986541 0.4332314 0.29336593
000350 42 2f a5 3c 8b ae 79 3e 65 a6 3b 3e d5 36 57 3d
       0.020164136 0.24382989 0.18325193 0.052542526
000360 76 0a 04 3e d8 79 30 bd 5f 97 85 be d4 65 fc 3d
       0.12894616 -0.04308495 -0.2609205 0.1232411
000370 b9 29 8e 3c a3 25 5e bd 83 96 82 3c 4d 40 70 3d
       0.01735388 -0.054235112 0.01594091 0.058655072
000380 cd a1 c4 bd 46 dc ed bd 48 3c 0b 3c 6b 62 df bc
       -0.096011735 -0.116142794 0.008498259 -0.027268609
000390 8e 24 5c be ac 8f 98 bd d2 b7 d5 3d d3 0a 24 be
       -0.2149832 -0.07449278 0.104354516 -0.16019754
0003a0 e0 b7 4f be 20 62 8f bc d3 8a e6 bd 35 35 02 bc
       -0.20284986 -0.017502844 -0.11256947 -0.007947256
0003b0 43 b2 7d 3b 58 94 98 be 8d 68 03 be c5 91 1c bd
       0.0038710989 -0.29800677 -0.12832852 -0.038224954
0003c0 43 93 9b be d7 42 35 bd 00 1f 04 be f6 75 90 bd
       -0.3038579 -0.044253197 -0.1290245 -0.07053749
0003d0 a3 a9 0a 3e bc 62 a8 3d d2 63 be be 08 8d e2 bd
       0.13541274 0.08221957 -0.37185532 -0.11062056
0003e0 4d 45 f9 3d 7b cf b1 be 00 55 91 be 1e 49 64 bd
       0.12171421 -0.34728608 -0.28385162 -0.055733792
0003f0 a1 e0 8b bd 79 95 5e 3e 09 75 02 bd 1b 37 73 be
       -0.06829954 0.21736707 -0.031849895 -0.2375149

convblock4.2.weight f4 [10]
000000 63 d2 75 3f 1b c6 73 3f b8 a5 9c 3f cb 06 52 3f
       0.9602415 0.9522416 1.2238073 0.82041615
000010 9f 5a 75 3f 07 d3 60 3f f7 d9 a0 3f 44 3f 67 3f
       0.958414 0.87822 1.2566518 0.9033091
000020 27 61 52 3f 7e 6e 83 3f
       0.8217949 1.0268095

convblock4.2.bias f4 [10]
000000 26 2d 14 be d6 d0 2e 3d f6 de ca 3c 1c 1a a3 3d
       -0.14470348 0.04267963 0.02476452 0.07963964
000010 60 06 09 3d 22 9e cd 3e f3 a0 8e 3e c6 23 4f 3e
       0.033453345 0.40159708 0.2785717 0.2022849
000020 b5 a6 de 3e 5b 2c 22 3f
       0.43486562 0.6334893

convblock4.2.running_mean f4 [10]
000000 1b 4e 9c 3f 04 00 00 00 03 67 1a 40 31 4b ec 3e
       1.2211336 6e-45 2.4125373 0.46151116
000010 04 00 00 00 ba 3f 4f 40 a5 c6 d7 3f fa ab 09 3d
       6e-45 3.2382646 1.6857497 0.033611275
000020 1a 32 ad 40 6b a1 15 40
       5.412366 2.3379772

convblock4.2.running_var f4 [10]
000000 1d 99 87 40 04 00 00 00 e8 4f 1e 41 9f f4 92 3f
       4.2374406 6e-45 9.894508 1.1480902
000010 04 00 00 00 69 67 57 41 74 60 4f 40 ca 81 2e 3d
       6e-45 13.462747 3.240262 0.042604245
000020 b5 34 bd 41 0f 27 a7 40
       23.650736 5.223518

convblock5.0.weight f4 [12, 10, 3, 3]
000000 d6 15 54 bd 50 82 0e be a6 96 75 3e e4 58 88 be
       -0.051778637 -0.13916898 0.23983249 -0.26630318
000010 0d 94 a0 be 8b 63 96 3d c1 c3 2a bd a9 9f 6a 3d
       -0.31362954 0.07343205 -0.04169059 0.05728117
000020 81 89 88 3e aa 23 fd 3d 10 75 a1 3d a8 47 91 3c
       0.26667407 0.12360318 0.07883656 0.017734364
000030 89 45 d5 3c 00 b9 02 3c 7d 6b 49 3d af d5 3c 3c
       0.026034134 0.007978678 0.049174774 0.0115255555
000040 8e c5 12 bd 82 4b 4b 3c 7e a5 8f 3d 45 15 9f bc
       -0.035832934 0.012408139 0.07013987 -0.019419322
000050 1f e1 3c bd b0 4e 54 bd db 4f d6 bd 61 dc d7 3d
       -0.04611313 -0.051832855 -0.1046445 0.10540081
000060 54 39 0a be 54 fb 99 bd 1a 5e be bd 92 b2 66 be
       -0.13498431 -0.0751864 -0.09295292 -0.22529057
000070 58 cb 02 be 7e 50 dd bd f0 b6 c0 be 58 14 92 bc
       -0.12772882 -0.10806368 -0.3763957 -0.017831966
000080 b8 a2 69 bc 54 88 77 be ec 1f 24 bd 7e 27 c9 bd
       -0.014259987 -0.24173099 -0.040069506 -0.09821986
000090 f5 d5 90 3d 3d db d2 3d 1a 5b 70 bd ed a3 3a bd
       0.07072059 0.10295723 -0.05868063 -0.045566488
0000a0 1d d4 c8 3d e1 5d d9 bc b9 bd 0d be 70 87 80 bd
       0.098060824 -0.026534023 -0.13841905 -0.06275833
0000b0 dd ca 71 3d 4b 51 d0 bc 44 f0 b6 3d c1 16 dd 3c
       0.059031356 -0.025429389 0.08932546 0.026988389
0000c0 be 53 cc 3c 07 7a f6 bd bd 0c 1a bd 3c 46 9a be
       0.024942275 -0.120349936 -0.037609804 -0.3013171
0000d0 92 e7 06 bd 57 9d d4 3d 89 1b da be 30 3b d0 be
       -0.032935686 0.10381573 -0.42599133 -0.40670156
0000e0 e8 03 28 3d fd 19 1e be 53 20 f1 3c e3 64 b3 3e
       0.04101935 -0.15439601 0.029434359 0.35037908
0000f0 db 84 6a bd d7 fb 66 3d eb 2f b1 3e a1 48 17 be
       -0.057255607 0.056392517 0.3460687 -0.147738
000100 16 e9 17 be f5 89 99 3d d4 54 91 3d 04 78 05 3e
       -0.14835009 0.07497016 0.07096258 0.13034064
000110 24 81 c0 3d fe f7 cd bd 0d 99 dd bc 9b 78 c0 3c
       0.093996316 -0.100570664 -0.02705052 0.02349501
000120 1e 67 5e be 33 60 3f be 19 24 01 be cb 85 ed 3c
       -0.21719024 -0.18689041 -0.12611426 0.028994462
000130 b5 74 fa bc 37 e1 a2 3d 7b 68 ad bd 01 fc 93 bc
       -0.030573228 0.079531126 -0.08467194 -0.0180645
000140 7b 23 fd 3d 11 a3 ba be 1d 79 02 bf 04 3c 96 be
       0.12360283 -0.36452535 -0.50966054 -0.29342663
000150 c1 0d ac bd 37 36 52 be 95 a0 d0 3c 42 7d b9 bd
       -0.08401061 -0.20528494 0.025467196 -0.09057094
000160 9a 00 e0 bc 62 9e d1 3e e6 f9 da 3d 66 3b e5 3c
       -0.027344037 0.4094115 0.106921956 0.027982425
000170 f0 22 a2 bd 51 8a 9e 3d a9 60 1a 3e 6d 60 00 3e
       -0.0791682 0.077412255 0.15075935 0.12536784
000180 ec 41 64 be e5 e9 19 3d 4b e1 42 bd 44 2a 23 be
       -0.22290772 0.037576575 -0.047578137 -0.15934092
000190 f6 4d e2 bd 7f 2b 82 be 89 01 90 bd 6d 26 88 bd
       -0.11050026 -0.2542381 -0.07031543 -0.06647954
0001a0 27 7c 2f be 68 15 4b bd 7c 84 96 be ce 4d 59 be
       -0.17137204 -0.04958096 -0.29397953 -0.21221086
0001b0 80 db 3f 3e 92 3a 25 3e d9 61 81 3e 68 8c 32 3d
       0.18736076 0.16135624 0.25269964 0.043590933
0001c0 46 bb ea 3d ea 2c a0 bd f9 9e c0 bd bc b1 01 be
       0.11461501 -0.07821067 -0.09405322 -0.12665457
0001d0 10 d4 95 be 33 83 01 3e c3 44 e5 bd 0a 35 45 be
       -0.29263353 0.12647705 -0.11194756 -0.19258514
0001e0 1f c7 80 3d 59 fc 9b be da c1 61 be 38 41 63 3d
       0.06287979 -0.30465963 -0.22046605 0.05548212
0001f0 f4 79 18 be bc f9 c6 be 92 4a 87 3d 3d 01 b5 bd
       -0.14890271 -0.38862407 0.0660602 -0.08838127
000200 dc b2 94 bc 7c 07 35 bd d1 b9 30 bd 1e 3e ae bd
       -0.018151693 -0.04419659 -0.04314596 -0.08507942
000210 e9 dc f4 bb 40 2d 86 3c 75 5a de 3c 07 1c 6b be
       -0.0074726236 0.016378999 0.027142743 -0.2295991
000220 50 b2 17 3d b4 77 01 bd 61 61 bd bc b5 aa 04 3e
       0.037035286 -0.0316083 -0.023117723 0.12955745
000230 f0 e0 37 3d 40 6b 8e 3d 80 9a 92 bd 56 b2 72 be
       0.04489225 0.0695405 -0.07158375 -0.23700842
000240 5b d9 bd 3e 03 00 be 3d 59 2e 24 be 7e e0 32 3d
       0.37079892 0.09277346 -0.16033305 0.043671124
000250 db 55 49 be 71 0b e8 bd be f5 03 bf a8 79 9a be
       -0.19661658 -0.11330307 -0.5154685 -0.3017094
000260 8a 0a 8c bd a6 07 48 be f5 9a 61 be 24 a1 53 bd
       -0.06837948 -0.19534168 -0.22031768 -0.051667348
000270 e0 96 ae be a1 ab 15 3d 6a 64 58 3e 42 07 7e 3d
       -0.34099483 0.03654063 0.21132055 0.06201864
000280 8b 80 8d 3e ac 67 01 3e e2 59 c6 3d 8d 60 ae 3d
       0.27637133 0.12637204 0.096851125 0.08514509
000290 3a 06 e3 bc 42 ee 95 3d b8 16 3f bc 8e 71 5c bd
       -0.02771293 0.07320835 -0.011663131 -0.05381923
0002a0 c3 ae fb bd ef e4 45 be 4f 61 aa be 7d df 71 3e
       -0.122891925 -0.19325612 -0.33277366 0.2362041
0002b0 d0 23 b5 3e 64 c9 fb 3c 1c 3d b8 3d 3e 6b 4d bd
       0.35378885 0.030735679 0.08996031 -0.050151102
0002c0 b4 9e 88 bd 6b 95 c8 be b5 02 23 bf 9c 63 34 be
       -0.06670895 -0.39176497 -0.63676006 -0.17616123
0002d0 99 12 dc bd 5f 4f 74 3e fd 8e 5c 3e 92 12 85 3e
       -0.10745735 0.23858403 0.2153892 0.2599073
0002e0 47 00 14 3e bd 70 30 3e 52 08 65 3e 85 90 60 3e
       0.14453231 0.17230506 0.22366455 0.2193013
0002f0 5b 56 48 3e 61 58 c1 bb b5 3a 60 bc 31 4f b9 bd
       0.19564192 -0.005900428 -0.013685872 -0.09048308
000300 6b 16 c0 3c 90 89 b8 bd 7f 86 91 bd 67 66 eb bd
       0.02344819 -0.09010613 -0.07105731 -0.11494141
000310 ee bb d4 bd a6 3b 3b 3d 03 31 b4 be 11 d6 1d bc
       -0.10387407 0.045711182 -0.35193643 -0.009633557
000320 05 2e b3 3d 99 0d 53 be 6c 98 73 3c 3b 18 e9 3d
       0.08749012 -0.20610656 0.014867883 0.11381575
000330 64 2d 03 be 31 9c b8 3d b1 bb 21 3e 8a e7 ba bd
       -0.12810284 0.09014166 0.15794255 -0.09126194
000340 e5 69 8c bc 00 e9 23 3e 07 8e 11 be 75 ad 31 bd
       -0.017140338 0.16006851 -0.14214335 -0.043378312
000350 95 24 5d 3d 90 b2 b3 bd 49 c1 4c be 0a a9 08 bc
       0.053989965 -0.087742925 -0.19995607 -0.008341083
000360 c9 ae 21 3d 2a 2a 2b 3e 93 5f c1 3b 6c 6e 17 3e
       0.03947333 0.16715303 0.005901286 0.14788216
000370 7b cb 16 3e 60 eb 1b 3e 06 66 18 3e a0 fd 2e 3e
       0.14726059 0.15226507 0.14882669 0.17088938
000380 06 9e 2e 3e 5a f9 b5 be 7b 69 99 be 27 5b 5a bd
       0.17052469 -0.35541803 -0.29963288 -0.053309586
000390 02 b8 63 be d0 51 b1 bd 68 d2 4e 3e c6 46 88 bd
       -0.22238162 -0.086581826 0.20197451 -0.06654124
0003a0 6b d4 71 3d d1 4b 64 3e 14 d2 34 be 70 b6 94 3c
       0.05904047 0.22294547 -0.17658263 0.0181534
0003b0 6b 5d c5 be bc 1f ec 3c cf 75 12 bb bd 1e 0c bd
       -0.38547835 0.028823726 -0.0022348051 -0.034209
0003c0 d5 1d a7 bd 10 e3 0a 3e 14 fa 56 3e f1 c2 75 be
       -0.08159987 0.1356318 0.20993835 -0.24000145
0003d0 7c e6 49 bc e0 f4 d9 3c 8a f3 2a bd 6c 00 d2 3d
       -0.012323018 0.026606023 -0.041736163 0.10253987
0003e0 3f 0b 1f bd ac 77 31 be 47 53 d8 bc 24 68 89 3e
       -0.038829084 -0.17330807 -0.026406897 0.26837265
0003f0 3f 8c f5 be 90 42 a9 be 00 85 e9 3d 06 db 2c be
       -0.47958562 -0.33058596 0.11402321 -0.16880426

convblock5.2.weight f4 [12]
000000 9d 8b ec 3e 2a ae ec 3e c8 8f 47 3f b2 c0 37 3f
       0.46200266 0.46226627 0.7795377 0.71778405
000010 f0 dc 65 3f 60 18 65 3f 52 7c 2a 3f 3e b6 5c 3f
       0.8979025 0.8949032 0.6659595 0.8621558
000020 3d 48 45 3f 9d 6e 71 3f 11 51 47 3f 17 d3 85 3f
       0.7706335 0.9430941 0.7785807 1.0455045

convblock5.2.bias f4 [12]
000000 c6 ab 30 3d d2 67 cc 3c ec 32 30 3e 79 57 38 3d
       0.043132566 0.02495185 0.17206925 0.045005295
000010 57 e2 f0 3c 3f 57 59 3e 60 85 36 3e 30 55 88 3d
       0.029404802 0.21224688 0.17824316 0.06656873
000020 9b 81 77 3d d0 a6 2d 3d 29 2c 2e 3e fe bb 8a bd
       0.060426336 0.042395413 0.17009033 -0.06774138

convblock5.2.running_mean f4 [12]
000000 12 95 42 3f f4 1a 67 3e 65 b3 9c 3f 42 91 ab 3f
       0.76008713 0.22568876 1.2242247 1.3403704
000010 34 b8 1d 3f 91 91 56 3f 7a 81 81 3f ec be 91 3f
       0.61609197 0.83815867 1.0117638 1.138639
000020 0a 5c 89 3f 55 1a 74 3f 93 c5 79 3f 36 eb 21 40
       1.0731213 0.9535268 0.975671 2.5299811

convblock5.2.running_var f4 [12]
000000 f8 c5 00 40 a0 84 ad 3e 4e 3b 54 40 de 4f 17 40
       2.012083 0.33890247 3.3161197 2.3642497
000010 02 0d c5 3f c2 0b 06 40 eb 7f 1b 40 0a dd ae 40
       1.5394595 2.0944676 2.4296825 5.4644823
000020 c7 6c 8a 40 8d fd 71 40 20 89 2a 40 cf df 4b 41
       4.3257785 3.7811005 2.6646194 12.742141

convblock6.0.weight f4 [16, 12, 3, 3]
000000 e3 76 28 3e 2b 2c c5 3d 56 f9 47 be c8 13 0e 3e
       0.16451602 0.09627565 -0.19528708 0.13874733
000010 71 c5 06 3e 1f c3 a4 bd d6 c4 ff 3d e5 9f 32 3e
       0.13161255 -0.08045029 0.12488715 0.17443807
000020 d5 52 e8 bd ba df c0 bd 5d 9d b2 3c f3 a6 ef 3d
       -0.11343924 -0.094176725 0.021803552 0.11701765
000030 0d d4 e1 bd 93 ef 73 3d 37 a4 2f bd 41 64 36 bd
       -0.110267736 0.059554648 -0.042881217 -0.044529203
000040 55 8b 5a 3c fb 1d 59 3c 26 8f 4c 3e a1 2c c8 3d
       0.013338883 0.013251777 0.19976482 0.09774137
000050 45 a4 06 3e ea 26 bb 3d ad 29 c0 3d e9 b2 2b 3e
       0.13148601 0.09138282 0.09382949 0.16767468
000060 e0 7a 4e 3e a2 b4 ef 3c 6a d0 62 3e 0b 0c d4 3d
       0.2016406 0.029260937 0.22149816 0.103538595
000070 63 5d b9 3c f7 72 1a bd dc 13 32 3e 02 ad 95 3b
       0.022627538 -0.037707295 0.17390388 0.0045677433
000080 59 de 16 3b 1d 67 81 3e c9 7c f3 3d c3 65 29 3e
       0.0023020713 0.25273982 0.11889035 0.16542725
000090 c6 93 81 be 0a 15 53 3c 07 c0 27 3e 6d db 9a be
       -0.25308055 0.012883434 0.16381846 -0.30245534
0000a0 a0 2e 86 bc fd e1 99 3e 1c 80 53 be 5a 40 80 3d
       -0.016379654 0.30055228 -0.20654339 0.06262274
0000b0 d4 c6 40 3e b8 3c 8b 3e 34 f5 6b 3d 1d 5d 6c be
       0.18825847 0.27194762 0.05760689 -0.23082395
0000c0 fb a6 74 3e 00 ab e3 3d 97 c2 86 be 11 6a a9 3e
       0.23891823 0.111166 -0.26320335 0.33088735
0000d0 52 15 d8 bc 67 32 9b be 6c 59 46 3e e2 c7 a6 bc
       -0.026377354 -0.3031189 0.19370049 -0.020358983
0000e0 d0 e6 9a be a3 da 7e 3e ac 5a 21 bd c3 91 b2 be
       -0.3025422 0.24888091 -0.039393112 -0.34876832
0000f0 c3 fb 95 3e 76 e0 bf 3c 21 ca 7b be 59 03 b8 3c
       0.2929364 0.023422461 -0.24588825 0.022462534
000100 bc 60 07 be de d7 a6 be f5 13 c6 3d 96 68 f1 bd
       -0.13220495 -0.3258657 0.09671775 -0.11787526
000110 63 c6 b5 be ff 0d e4 bc 83 93 9e bd 73 c2 6e be
       -0.3550292 -0.027838705 -0.077429794 -0.23316364
000120 63 1a 71 3e 8b 97 80 bd 00 e5 ac be 02 9f 86 3d
       0.23545222 -0.062789045 -0.33768463 0.06573297
000130 43 20 c4 bd 20 e9 ab be 2d 3d ce 3d 16 d4 db bd
       -0.09576466 -0.33576298 0.10070262 -0.107338116
000140 4f 75 7e be 4e 37 1e 3d 3e d5 a4 bd 97 a9 e5 bc
       -0.24849437 0.03862696 -0.08048485 -0.028034968
000150 d2 48 eb bd 5a fd 02 be 96 73 ae be 29 53 b4 bd
       -0.11488499 -0.12791958 -0.3407256 -0.08804924
000160 7d 26 fc bd b8 d2 73 be 54 1d a0 3e b4 9f d8 bb
       -0.123120286 -0.23810852 0.31272376 -0.006610835
000170 bf a1 41 be 7f 62 67 3e a9 c0 ad 3d 05 1f 35 be
       -0.18909357 0.22596167 0.08484013 -0.17687614
000180 cb 52 ad 3e 92 f6 aa 3d 88 8d 90 be a2 54 90 be
       0.3385223 0.08347811 -0.2823298 -0.2818957
000190 f5 b7 36 be b2 73 68 3e 74 1e 8e be c2 e0 5e 3d
       -0.17843612 0.22700384 -0.2775761 0.054413565
0001a0 40 79 9c 3e 5b 57 2b be ab 2d 36 3d 1b 89 7c 3e
       0.30561256 -0.16732542 0.044477146 0.24661677
0001b0 ae bd f1 3c 71 eb c1 3d 16 3b 68 be da e9 22 3e
       0.029509392 0.09468735 -0.2267879 0.1590952
0001c0 df fc 86 3d d4 fa fb bd bd 32 f8 3c 26 d1 ec 3d
       0.065912 -0.12303701 0.030297631 0.115633294
0001d0 b5 26 ec bd 55 db 1a 3e 60 e3 82 3e 5f 4e 85 3d
       -0.1153082 0.15122731 0.25564098 0.06509089
0001e0 17 a3 4d 3d 64 5d 31 bc 58 f2 3f bd 8e e4 15 3d
       0.050204363 -0.010825489 -0.046861976 0.03659492
0001f0 83 8b 35 be c2 82 68 bd 00 4a e3 3e 39 4e 30 3e
       -0.17729001 -0.056765325 0.44392395 0.1721734
000200 e4 2d 2d 3e 84 49 0f 3c 45 5f 3e 3c 24 80 f9 3d
       0.16912037 0.008745555 0.011619394 0.12182644
000210 ab f3 f5 bd ba 88 03 be 48 8a ea 3c c6 c4 90 3e
       -0.120093666 -0.12845126 0.02863039 0.28275126
000220 00 f7 99 3d 7d c8 81 bd 7c dc a5 3e 4b 57 26 3e
       0.07517815 -0.06337068 0.3239478 0.16244237
000230 ab ee fa 3c 06 dd 98 3e 60 83 e8 3c cc 78 b3 bc
       0.030631384 0.29856128 0.028382957 -0.021908186
000240 d0 68 98 be a6 21 00 bd a0 0d 7d 3e 05 ef 6b bd
       -0.29767466 -0.03128209 0.24712229 -0.057600994
000250 aa 8d f9 3d 59 84 97 3e 77 59 83 3c 8d ff 5a 3e
       0.121852234 0.2959316 0.016033871 0.21386547
000260 b5 6f 6d 3e 83 47 ab 3e 30 a5 c4 bc 97 7f 7d be
       0.23187144 0.33452997 -0.024004549 -0.24755703
000270 b5 0b a6 3e 56 84 21 bd 51 2f 68 be b8 41 6c 3e
       0.32430807 -0.039432846 -0.226743 0.23071945
000280 ce 56 3f bc 34 ab 0c be 2d cf 9b 3e cc b5 41 bd
       -0.011678411 -0.13737184 0.304315 -0.047292516
000290 ec 83 bc be 18 53 86 3e 08 a1 28 bd ab cf 99 be
       -0.36819398 0.2623527 -0.041169196 -0.3004125
0002a0 4c 28 8a 3e b2 7c 80 bd f2 cc 6c be 95 d2 f8 3a
       0.2698387 -0.06273784 -0.23125055 0.0018983657
0002b0 69 f8 88 be 20 81 8f be c3 9a 8b bc 9a 58 07 be
       -0.26752022 -0.28028202 -0.01704157 -0.13217393
0002c0 e0 d4 86 be c1 2c 7f 3d 62 49 c2 bd 0e ae 76 bd
       -0.26334286 0.06229854 -0.09486653 -0.060224585
0002d0 c3 a4 1b bc 97 cd 67 be 9f 9f 85 be a8 b0 1c 3e
       -0.0094997315 -0.2263702 -0.26098344 0.15301764
0002e0 8a dd f4 bd cd 68 83 be 0c 6c 3c 3e 1c 5a 06 3c
       -0.11956318 -0.25665894 0.18400592 0.008200195
0002f0 d9 e4 90 bc 5f 46 f1 bd 4b a1 9a be 2f be 43 be
       -0.017687248 -0.11781 -0.30201182 -0.19115518
000300 da e8 0a 3d 90 32 29 be 8b b7 aa bd 74 62 2a bd
       0.03391347 -0.16523194 -0.08335789 -0.0415978
000310 40 8d 8e bd 0d f0 8f bd f6 b4 7d 3e ab 0d 57 bd
       -0.06960535 -0.07028208 0.24776062 -0.05250327
000320 43 75 b2 be 1e f9 a7 3e ac c2 b4 3c 77 8c 98 be
       -0.3485509 0.3280725 0.022065483 -0.29794666
000330 81 39 a1 3e 57 9b 8f 3d 88 42 d3 bd 7c ea 13 bf
       0.31489184 0.070120506 -0.10315424 -0.5777967
000340 a7 b2 6f be ff 1f 98 3e 11 34 93 be 84 47 92 bd
       -0.23407994 0.2971191 -0.2875066 -0.07142547
000350 e4 dd 97 3e 84 25 da bd 95 f6 30 bd 98 cd 61 3e
       0.29661477 -0.10651687 -0.04320391 0.22051084
000360 b8 9f 85 be f7 93 99 be c3 e0 27 3e e3 93 b1 bd
       -0.26098418 -0.299957 0.16394334 -0.08670785
000370 59 68 06 bd 7e 1e a7 3e ac 7f b5 bd 42 39 29 3d
       -0.032814357 0.3264045 -0.08862242 0.04131437
000380 e3 74 05 3e d6 d2 1d be ed 4c 83 3d 63 44 14 bc
       0.1303287 -0.15412459 0.06411157 -0.009049508
000390 db 33 44 3e 34 8d 05 3e ef a5 90 3d 67 60 1f 3e
       0.19160406 0.13042146 0.07062899 0.15564118
0003a0 26 02 04 3e 42 c0 21 3d 9c d6 de 3d 02 02 77 be
       0.12891445 0.039489992 0.10880777 -0.2412186
0003b0 8f d9 42 be e5 0b 26 3e 9f 9b 0d 3d b2 ec b2 bd
       -0.19028305 0.16215475 0.03457224 -0.08736552
0003c0 60 ef 98 3d 31 0d 38 be d4 4c 2c bd 93 69 55 3d
       0.07467532 -0.17973782 -0.042065457 0.052102637
0003d0 f0 cc 4e be 97 ab c8 bd 27 73 54 3e 5d 16 12 3e
       -0.20195365 -0.09798353 0.20747052 0.14266343
0003e0 9b a7 79 3d d7 19 0d 3e 48 45 40 3e 85 45 13 bd
       0.060950857 0.13779388 0.18776429 -0.03595497
0003f0 10 36 89 bd 25 ca d6 bd ac 3e ce bd 7d 36 68 3d
       -0.06699765 -0.10487775 -0.100705475 0.05669259

layer_1.weight f4 [400, 19]
000000 5b 4b 5d be e4 95 c1 be 12 7d 94 3b 05 77 db bd
       -0.21610777 -0.3780967 0.004531511 -0.107160605
000010 52 ad c3 3e 9a 1f 99 3d 6d a3 81 be e2 44 f4 bd
       0.3821817 0.07476731 -0.25319996 -0.11927201
000020 a6 3b 2e bd f0 a1 63 bd 75 56 81 3e 1e 9d 39 3b
       -0.042537354 -0.055574358 0.25261274 0.002832241
000030 19 61 0d bd cd 2d 05 be 08 8c 73 be 86 30 1f be
       -0.034516428 -0.13005753 -0.23783886 -0.15545854
000040 30 28 c8 bd 52 24 e9 3e 33 8a fc 3d d3 1b 76 be
       -0.0977329 0.45535523 0.12331047 -0.24034052
000050 87 a3 98 be 85 bc c2 bd 03 29 99 bd 04 fb 6b bd
       -0.2981226 -0.095086135 -0.074785255 -0.057612434
000060 c6 c4 0c 3d 3b a2 d9 be fc 18 3f 3d 49 cc 8c bc
       0.034367345 -0.42506585 0.046654686 -0.017187255
000070 a1 64 a1 3d 72 a0 fd 3d 0a 61 9f 3d 60 c4 23 3e
       0.078805216 0.12384118 0.077821806 0.1599288
000080 e2 98 ef 3c fc 68 99 be b2 9c 1b bd 9d 70 0a 3e
       0.029247705 -0.2996291 -0.037991233 0.13519521
000090 e5 a0 5a be 40 94 6d bc 55 0a a4 be 39 cd 83 be
       -0.21350439 -0.014500678 -0.32039133 -0.2574251
0000a0 49 d3 6e 3d 50 d8 67 bc 4c 2b 94 3e 8d 28 0d be
       0.058306966 -0.014150694 0.28939283 -0.13785
0000b0 9e 7d 4e be 4a 61 a4 bc 63 20 63 be f1 aa 13 3e
       -0.20165107 -0.020065922 -0.22180323 0.14420678
0000c0 79 6f 06 3d 58 cb 17 be 2a 32 91 3e bf 15 6c 3d
       0.032821152 -0.14823663 0.28358585 0.057637926
0000d0 6e 09 ec 3d 1f 29 4a be ee 79 2e be f4 bd fb 3e
       0.11525236 -0.19742249 -0.170387 0.4916836
0000e0 05 98 f3 3d 16 19 59 3d 5e d9 d5 be 1d 3a a0 3d
       0.1189423 0.05300244 -0.417674 0.07823584
0000f0 65 ae 8a be 1e 0a 81 3e 5c d1 4f 3e 68 d8 86 be
       -0.27086177 0.2520303 0.20294708 -0.2633698
000100 15 91 97 3c bb b3 fe 3d 24 a7 60 3d 9e ab a4 bd
       0.018501798 0.124366246 0.054846898 -0.08040546
000110 45 bf 0c 3e ba 2d 84 3e a1 f9 c4 3d 04 a2 b7 be
       0.13744839 0.25816137 0.096179254 -0.35865796
000120 c7 0e a1 be 79 82 ad be 6f 3d ea 3e f8 44 1c 3e
       -0.31456587 -0.33888605 0.45749995 0.15260684
000130 ac 8f 30 bd 78 94 b0 bd 00 46 9a 3e c8 78 90 3e
       -0.043105766 -0.08622068 0.3013153 0.2821715
000140 2f bf 04 3d ec d2 ff bd da 9d 90 be 5c a7 b3 3e
       0.03240889 -0.12491402 -0.2824543 0.35088623
000150 ac ab 58 3e bf cc 19 3e b1 5a 07 3c 74 52 27 be
       0.21159238 0.1501951 0.008261369 -0.16340047
000160 25 78 43 be 73 16 fd bd 5d f4 0a 3e ec 1f 5b 3e
       -0.190888 -0.123577975 0.1356978 0.21398896
000170 9c e0 58 3e 0d 32 f8 3d 74 aa fd bd 75 66 25 3e
       0.21179432 0.121189214 -0.12386027 0.16152366
000180 0c bc 00 be f4 e4 15 3e f2 00 12 3c bc 8b a3 bd
       -0.12571734 0.1463812 0.008911358 -0.079856366
000190 17 08 ff 3e a2 c8 58 bd e5 08 37 3e 68 5f 4c 3e
       0.4981086 -0.052925713 0.17874487 0.1995827
0001a0 0f 8d 4e 3e 5a a2 8f be e2 a1 d7 3e 29 f6 0b 3e
       0.20170997 -0.28053552 0.42115694 0.13668121
0001b0 3b f6 04 3e e4 74 fc bd 9e 06 ce 3d 44 f9 bc 3e
       0.12984554 -0.123269826 0.10059856 0.36908925
0001c0 85 cc 30 be e3 d0 5b be be 7c 1c 3e 37 59 35 be
       -0.17265518 -0.21466403 0.1528196 -0.17709814
0001d0 77 b6 0b 3e cb ba cb bc a6 0c 22 3e f5 d4 74 3e
       0.13643824 -0.024869343 0.15825137 0.23909362
0001e0 48 07 60 be a0 6e 67 3e 99 01 ce 3d 23 9c 9f 3e
       -0.21877778 0.22600794 0.100588985 0.3117381
0001f0 0f 45 23 bc 57 61 f4 3c 0f 6c cb be 88 ce 5e be
       -0.009965195 0.029831572 -0.3973088 -0.21758473
000200 e8 0b e3 be c0 48 8d bb 78 6c 56 be 9f 36 7d be
       -0.4434502 -0.004311651 -0.20939815 -0.24727868
000210 0c 57 4d 3e 7b f2 79 3c ef a3 6e bd fc 10 90 3e
       0.20052737 0.015255566 -0.058261808 0.28137958
000220 28 f5 26 be 71 43 23 3e 5e cc ef 3d a0 0c 0b be
       -0.16304457 0.15943696 0.11708902 -0.13579035
000230 bb a9 b8 3d 35 8f 03 3e a5 92 09 3e 91 73 84 3e
       0.090167485 0.12847598 0.13434847 0.2586942
000240 04 c3 c1 bc a7 68 98 3e 3a 4a dd 3d 74 aa 82 3e
       -0.023652561 0.29767343 0.10805173 0.2552067
000250 34 94 c2 3e ff db 3e 3e 80 de 28 3d 8a 00 1a bd
       0.38003695 0.1863861 0.041227818 -0.03759817
000260 17 4d 09 bf df ee cb be 9b e7 e6 3d 46 d8 2f bc
       -0.53633255 -0.39830682 0.11274644 -0.010732716
000270 c8 6d 58 3c cb 21 9b be ef 05 1b bd 54 c5 40 3c
       0.013209768 -0.3029922 -0.037847456 0.011765797
000280 7f d8 c8 bd 3a 9f 82 3d 4e bb 83 3e 1c 19 03 bf
       -0.09806918 0.06378026 0.2572884 -0.5121019
000290 83 50 9c be fd 51 2d be 00 04 91 3d 5a 02 1c 3e
       -0.30530176 -0.16925807 0.07080841 0.15235272
0002a0 80 fa 1b 3e 0f da d9 be 44 5e 77 be 66 fa 16 3c
       0.15232277 -0.42549178 -0.24157053 0.009214973
0002b0 a0 15 4d 3e af f8 91 be cb 81 84 3d c7 82 be 3d
       0.2002778 -0.28510043 0.064700685 0.093022875
0002c0 b0 d1 b6 3b da 6c 87 bd 84 d8 5d 3e 08 f8 98 3d
       0.005579196 -0.06612559 0.21664625 0.07469183
0002d0 80 60 3b 3e ac 4c b1 3d 34 2c 30 3e f1 ee d9 bd
       0.1829853 0.08657202 0.17204362 -0.106412776
0002e0 62 29 b3 3e 47 13 4f bb be 36 23 3e a3 92 18 3f
       0.3499251 -0.0031597184 0.15938851 0.5959875
0002f0 5d c1 1d bf 20 02 5d 3e 31 37 79 3e 6c ca 40 3e
       -0.61623174 0.21582842 0.2433746 0.18827218
000300 67 12 1b be 64 c2 4a 3d 7a 4e c0 bc 7c f1 06 be
       -0.15143739 0.04950179 -0.02347492 -0.13178056
000310 a6 7d 9f 3b 5e 34 98 bc b7 58 8c be ee 9b 9d be
       0.0048672734 -0.018579658 -0.27411434 -0.30783027
000320 5e 49 53 3e a1 a0 78 be db 13 e0 bd 17 b2 5b bd
       0.20633456 -0.24280025 -0.10941287 -0.053636637
000330 8e 56 79 3e 8b c8 59 bd fc cc ec be 9c 3c fd 3e
       0.24349424 -0.05316977 -0.4625014 0.49460304
000340 03 b7 c7 3d 1f 6e 2a 3e 61 ed 16 3e 5b 32 9c 3e
       0.097517036 0.1664357 0.1473899 0.30507168
000350 26 02 87 bd 32 e7 2e be 9b 44 8c 3d ec d4 b0 bd
       -0.06592207 -0.17080382 0.06849023 -0.086343616
000360 e8 9a 7f be d4 78 97 3d 66 c7 e7 3e 8f a4 99 3d
       -0.24961436 0.07396093 0.45269316 0.0750209
000370 b5 3d b6 3e cd b1 c7 3e 75 ae 27 be a4 32 2e 3e
       0.35593954 0.3900284 -0.16375144 0.17011505
000380 dc 40 e0 bd fd c2 94 3e 9d bf b2 be 2d 3d e8 3c
       -0.10949871 0.29055014 -0.34911814 0.028349483
000390 e2 70 0d be f4 13 04 be ae 6d 85 3e f5 7e 69 be
       -0.13812593 -0.12898237 0.2606024 -0.22802337
0003a0 11 02 8a 3e fd 2b b4 3b e4 c8 20 bd ed f0 f1 3e
       0.26954702 0.005498408 -0.039254084 0.47254124
0003b0 80 eb 31 be 80 6d 00 3f a2 08 87 3e a6 41 47 bd
       -0.17374992 0.50167084 0.26373774 -0.04864659
0003c0 fa 95 1a be 27 64 d0 3d 59 0a 67 bd 18 4c d5 3d
       -0.15096274 0.101753525 -0.056406353 0.10414904
0003d0 14 37 49 3e 14 13 67 be e4 1a 14 bf 19 32 1e bf
       0.19649917 -0.22565871 -0.5785353 -0.6179519
0003e0 10 44 75 be 20 4b 4d 3e 71 0e b9 3e 6f 84 92 3e
       -0.23951745 0.20048189 0.3614383 0.28616664
0003f0 9e 6e da be 69 74 b2 be 6a 3a 8f bd 9c 5d 69 be
       -0.4266252 -0.3485444 -0.069935635 -0.22789615
